weights/pose_predictor_epoch30.pth (torch, 35919 bytes, 6 tensors)

fc1.weight f4 [64, 39]
0	0xbbea8721	-0.007157222
1	0xbe1a3314	-0.15058547
2	0x3d26d72a	0.04073254
3	0x3eaa18a7	0.33221933
4	0xbd93b520	-0.07212281
5	0x3d8eb2d0	0.069676995
6	0xbe03708f	-0.12835906
7	0xbbe92064	-0.007114457
8	0xbd155d35	-0.036465842
9	0x3da0cbc5	0.07851366
10	0xbe1ebcb6	-0.15501675
11	0xbcbafacc	-0.022824667
12	0xbe1dd666	-0.15413818
13	0x3de3c3af	0.11121308
14	0xbcf143ae	-0.029451218
15	0xbe13b91b	-0.14426081
16	0x3cc58f22	0.024116103
17	0xbd684e66	-0.05671539
18	0x3cdaeb8b	0.026723644
19	0x3e4f914a	0.20270267
20	0xbd1a9066	-0.037735365
21	0x3ebef3c5	0.37295356
22	0xbdfa6e01	-0.12228013
23	0xbdd55225	-0.104160585
24	0x3c1e0deb	0.009646873
25	0x3d80d320	0.06290269
26	0x3dd69d4d	0.104792215
27	0x3e58d567	0.21175157
28	0x3dd0ac11	0.10189069
29	0x3cccfd58	0.025023147
30	0xbde87d57	-0.11352032
31	0xbd301efd	-0.042998303
32	0x3d9318d7	0.07182472
33	0xbddd9a1c	-0.1082041
34	0x3dfddcd1	0.12395633
35	0xbe356e79	-0.17717923
36	0x3e90787a	0.28216916
37	0xbc9867bf	-0.018604157
38	0xbddcd3d6	-0.10782592
39	0x3e7cf782	0.24703792
40	0xbd6a88ac	-0.057259247
41	0xbb80429c	-0.0039141905
42	0x3e34c286	0.1765233
43	0xbcabd4ce	-0.020975497
44	0x3db01432	0.08597602
45	0xbe5da8e4	-0.21646458
46	0x3d896364	0.067084104
47	0xbc2fcf9b	-0.010730649
48	0x3dcd67d6	0.10029571
49	0x3dc69696	0.09696691
50	0x3c6da9e9	0.014505842
51	0xbe8c00fe	-0.27344507
52	0x3d903828	0.07041961
53	0x3d1eb75b	0.03874908
54	0xbe48a17d	-0.19592853
55	0x3dd49f9b	0.10382005
56	0x3da23820	0.07920861
57	0xbe219da2	-0.15782788
58	0xbe142ef8	-0.14471042
59	0x3d760448	0.060062677
60	0x3e0950fe	0.13409802
61	0xbdc060c3	-0.09393456
62	0x3d35492a	0.044259228
63	0xbcb52391	-0.022111686
64	0x3d755751	0.059897725
65	0x3d66c3c9	0.05633906
66	0x3eb01751	0.3439279
67	0xbc4c822d	-0.012482208
68	0x3c8f6e16	0.017508548
69	0xbd4a8498	-0.049442858
70	0xbcffd6d8	-0.031230375
71	0x3d80e9a4	0.062945634
72	0x3df4e4e0	0.11957717
73	0xbe9a0d8e	-0.30088466
74	0x3cb84e81	0.022498371
75	0x3d82016e	0.06347929
76	0x3cd480c3	0.025940305
77	0x3d9f0b00	0.0776577
78	0xbd62e048	-0.055389673
79	0x3da3a7cc	0.07990989
80	0x3cb095ab	0.021555742
81	0x3e8cf410	0.27529955
82	0xbde99863	-0.114060186
83	0xbc0c281e	-0.008554487
84	0x3d8f5a63	0.06999662
85	0xbe33250c	-0.17494601
86	0x3c47cba8	0.0121945515
87	0xbd63fdbf	-0.055661913
88	0xbd5f07bd	-0.05445074
89	0x3ca66b7c	0.020314924
90	0x3dc9e3c7	0.09857898
91	0xbe18dd78	-0.14928234
92	0x3d0081d0	0.0313738
93	0x3e25c2ee	0.16187641
94	0x3ea7f5e6	0.32804793
95	0x3d23215a	0.03982673
96	0xbe177868	-0.14792025
97	0x3d888977	0.06666844
98	0x3d54d809	0.05196384
99	0x3e300f45	0.17193325
100	0x3d994c11	0.07485212
101	0xbde62e5d	-0.11239312
102	0x3d258999	0.040414426
103	0x3d085878	0.033287495
104	0xbd18db33	-0.03731842
105	0xbdd19d42	-0.10235073
106	0x3d4b4c0e	0.04963308
107	0x3d140310	0.036135733
108	0xbe1844b7	-0.14869963
109	0x3d7f1f90	0.06228596
110	0x3d80119a	0.06253357
111	0xbb40fe18	-0.0029448327
112	0xbc7a68d8	-0.015283786
113	0x3dbc3039	0.09188885
114	0xbcef7406	-0.029230129
115	0x3e80a73b	0.25127587
116	0xbc9578d5	-0.018246094
117	0x3e16391f	0.14670227
118	0x3eaa114d	0.33216324
119	0x3d260add	0.040537704
120	0xbdc744a7	-0.09729891
121	0x3e60f719	0.2196926
122	0xbc852d82	-0.016257051
123	0xbdb46be8	-0.08809644
124	0x3ebf76fd	0.37395468
125	0xbb4a1404	-0.0030834684
126	0x3dcd00cc	0.100099176
127	0x3d8b1e2d	0.06792865
128	0x3d6d5c34	0.05794926
129	0xbd916fc0	-0.07101393
130	0xbe006733	-0.12539367
131	0x3c3eecff	0.011653184
132	0xbdbf0946	-0.09327941
133	0xbdde593e	-0.10856865
134	0x3d0ccea6	0.034376763
135	0x3d9e07b0	0.0771631
136	0xbdbe2b3c	-0.0928559
137	0x3b7bd9be	0.0038429345
138	0x3e297215	0.16547425
139	0xbf24a153	-0.6430866
140	0x3d7ae7ae	0.061256103
141	0x3d550a3d	0.052011717
142	0xbf09f518	-0.5388961
143	0x3d40283b	0.046913367
144	0xbe4489ac	-0.19193143
145	0xbea0c678	-0.3140142
146	0xbe19a0cc	-0.15002745
147	0x3e30b9ec	0.17258424
148	0xbe8452a4	-0.258443
149	0x3b93e0a5	0.0045128637
150	0xbdd83a3c	-0.10557982
151	0xbf0a92d8	-0.54130316
152	0xbe4f6f9e	-0.20257422
153	0xbd220e71	-0.039564554
154	0xbd392fa3	-0.045211446
155	0xbce0a6f7	-0.027423365
156	0x39d2c6a2	0.00040202314
157	0xbe1fe9a3	-0.15616469
158	0xbcf1568f	-0.02946022
159	0xbe1e0590	-0.1543181
160	0xbdb2af18	-0.08724803
161	0xbb867ba8	-0.0041040964
162	0x3d385e4b	0.0450118
163	0xbda43c71	-0.08019341
164	0x3d3b4986	0.045724414
165	0xbd9834fb	-0.0743198
166	0x3e034233	0.12818222
167	0xbc26cae5	-0.01018021
168	0xbd4fbc3d	-0.050716627
169	0x3d1cae99	0.038252447
170	0x3990421f	0.00027515084
171	0x3ddaf102	0.106905
172	0xbcf13beb	-0.029447516
173	0x3bab44e0	0.0052267164
174	0x3d93d793	0.07218852
175	0xbd6787b4	-0.0565259
176	0x3cbd9c7f	0.023145912
177	0xbe0a2b6b	-0.13493125
178	0x3e31cf8a	0.17364326
179	0xbca97ed7	-0.020690365
180	0xbe057de2	-0.13036302
181	0x3a3fbc06	0.00073140895
182	0xbca2d50a	-0.019876976
183	0xbd87363f	-0.066021435
184	0x3e2564c3	0.16151719
185	0xbd85aa02	-0.06526567
186	0xbeab12bf	-0.3341274
187	0x3e5ae7c0	0.21377468
188	0xbca02e87	-0.019553436
189	0x3e17c2cb	0.14820401
190	0xbe0c0b4b	-0.13676183
191	0xbbf162fd	-0.0073665367
192	0x3f1c3f6d	0.6103428
193	0x3e864191	0.26221898
194	0x3dba45d6	0.090953514
195	0xbdcc605c	-0.099793166
196	0x3e9f37ce	0.31097263
197	0x3d9d6f17	0.07687204
198	0xbe04143f	-0.12898348
199	0x3de236bc	0.11045596
200	0x3e210e0f	0.15728019
201	0x3d1ff9a0	0.03905642
202	0x3de82f53	0.113371514
203	0xbd5df66b	-0.05419008
204	0xbd43b1d3	-0.04777701
205	0xbe08b1b0	-0.13349032
206	0x3e0d3924	0.13791329
207	0x3d0728c9	0.03299788
208	0xbc9919cc	-0.018689059
209	0x3d384f7a	0.04499767
210	0xbdc83d98	-0.09777373
211	0xbe290080	-0.16504097
212	0xbcb297ec	-0.021800958
213	0xbdf78cef	-0.12087428
214	0xbd8cb6f1	-0.06870831
215	0x3dc091b9	0.094027944
216	0xbd513d1a	-0.05108366
217	0xbef67d6b	-0.4814256
218	0x3d980f01	0.07424737
219	0x3df9fa2f	0.12205922
220	0xbefc60e1	-0.49292663
221	0x3c3fa0b7	0.011696032
222	0x3c8f533f	0.01749575
223	0xbe15fd25	-0.14647348
224	0x3e254c73	0.16142444
225	0xbed5418d	-0.41651574
226	0xbd10042c	-0.03516023
227	0xbd45fefd	-0.04833888
228	0xbf215721	-0.63023573
229	0xbe2e45f7	-0.17018877
230	0xbcd3edfc	-0.025870316
231	0xbeb71883	-0.35760888
232	0xbeb2effe	-0.34948725
233	0xbec2ddde	-0.38059896
234	0x3d851efe	0.06500052
235	0x3e06054e	0.13087961
236	0x3b43566d	0.0029806152
237	0x3dd4cb42	0.10390331
238	0x3da2b77c	0.07945153
239	0x3d841271	0.0644883
240	0x3e35bf58	0.17748773
241	0xbe1fbe28	-0.15599883
242	0xbd99f28d	-0.07516966
243	0x3d00ee80	0.03147745
244	0xbd1056a4	-0.035238877
245	0xbc19bf2a	-0.009383956
246	0x3e672f44	0.22576624
247	0x3d68b5b1	0.0568139
248	0x3d37de81	0.04488993
249	0x3be9676e	0.0071229255
250	0xbe64841e	-0.22316024
251	0x3d8a4646	0.06751685
252	0x3d876441	0.06610919
253	0x388dd8b3	6.763767e-05
254	0x3c00c256	0.007858833
255	0x3c5a53d7	0.013325653

fc1.bias f4 [64]
0	0x3e264f6a	0.16241232
1	0x3da446a3	0.080212854
2	0xbe054d4e	-0.1301777
3	0x3e7fa5ba	0.24965563
4	0x3ab29815	0.0013625646
5	0x3e80b042	0.25134474
6	0x3da77639	0.08176846
7	0x3d4a1995	0.049340803
8	0x3d57c07c	0.0526738
9	0x3dcf5939	0.1012444
10	0x3dae221f	0.08502602
11	0xbbaba690	-0.0052383617
12	0x3d53b7fd	0.051689137
13	0xbe381d51	-0.17979933
14	0x3e22825d	0.15870042
15	0xbc805232	-0.015664194
16	0x3c9077d8	0.017635271
17	0xbdcc01a2	-0.09961249
18	0x3e1944b8	0.1496762
19	0x3d33ef05	0.04392912
20	0x3d06aa82	0.032877453
21	0x3e264614	0.1623767
22	0xb8448ef8	-4.686319e-05
23	0x3dcdd9bd	0.10051296
24	0x3dd84dd0	0.105617166
25	0x3d8ca9b2	0.06868304
26	0xbca7078e	-0.020389345
27	0xbdf679a3	-0.12034919
28	0xbc7566a5	-0.014978086
29	0x3e5b91c9	0.21442331
30	0xbe02df95	-0.12780602
31	0x3d6b76e8	0.057486445
32	0xbd705d3d	-0.05868267
33	0xbc0ef43c	-0.008725222
34	0xbb9c5c2f	-0.0047717313
35	0xbc54c1c1	-0.012985648
36	0x3d0a084d	0.033699322
37	0x3d65c6de	0.056097858
38	0x3db2023d	0.08691833
39	0xbe16d670	-0.14730239
40	0x3e2b2f30	0.1671722
41	0xbd105b3e	-0.035243265
42	0xbc249d29	-0.0100472355
43	0xbc83132f	-0.016000358
44	0x3c86b26b	0.016442498
45	0x3d5239a8	0.051324517
46	0x3ce68bc1	0.028142812
47	0x3c2d6c53	0.010584909
48	0xbd9b8b93	-0.07594981
49	0x3e23b534	0.15987092
50	0x3dc0061b	0.093761645
51	0x3dbf4125	0.09338597
52	0x3d6a6d89	0.057233367
53	0x3dce33e2	0.100684896
54	0x3d7bd9d9	0.061487053
55	0x3d8a634a	0.06757219
56	0xbdad00c2	-0.0844741
57	0x3c198305	0.009369616
58	0x3c3f0294	0.0116583295
59	0xbd51e84b	-0.051246922
60	0x3c6cf572	0.014462816
61	0x3c78cf18	0.015186094
62	0xbd317e71	-0.043333475
63	0xbd7d0565	-0.061772723

fc2.weight f4 [64, 64]
0	0x3d5b87b8	0.05359623
1	0xbdfd5b1c	-0.12370893
2	0x3e659d0e	0.22423193
3	0xbe2849ee	-0.16434452
4	0x3df52af6	0.11971085
5	0xbe608494	-0.21925575
6	0xb94ea180	-0.00019705854
7	0x3c2e40b4	0.010635544
8	0x3e34b29f	0.17646264
9	0x3e0f83dd	0.14015146
10	0xbd9e873c	-0.07740638
11	0x3de1c233	0.11023369
12	0xbce39bd8	-0.027784273
13	0x3dd15752	0.10221733
14	0xbde967ec	-0.11396775
15	0x3ed0d14a	0.40784675
16	0xbe32369a	-0.17403641
17	0x3dc2dd48	0.09514862
18	0x3e999a6c	0.30000627
19	0xbd2de308	-0.042452842
20	0x3e5ebb41	0.21751119
21	0x3e9738cb	0.29535517
22	0x3e00cabe	0.1257734
23	0xbdc6a3fb	-0.096992455
24	0x3c90eb99	0.017690467
25	0xbe958819	-0.29205397
26	0xbebfda15	-0.3747107
27	0x3dab956e	0.08378111
28	0x3ce14ade	0.02750152
29	0x3dc070ec	0.09396538
30	0x3dcad3d6	0.09903686
31	0x3ed04804	0.40679944
32	0xbdbb1845	-0.091354884
33	0x3d403a7c	0.046930775
34	0xbdf45670	-0.11930549
35	0x3c360627	0.011109865
36	0x3cf3defb	0.029769411
37	0xbe49a245	-0.19690807
38	0x3ea7695c	0.3269757
39	0xbae966f4	-0.0017807172
40	0x3e8aa396	0.2707793
41	0xbea6062f	-0.32426593
42	0x3dc29fac	0.09503111
43	0x3d468097	0.048462477
44	0xbde901c3	-0.11377289
45	0x3cfc6567	0.030810071
46	0xbe610437	-0.21974264
47	0xbd0b5010	-0.0340119
48	0xbe91bb57	-0.2846324
49	0x3e223de9	0.1584393
50	0x3e4d05c3	0.20021729
51	0xbe8405bd	-0.25785628
52	0xbe298ad3	-0.16556863
53	0xbe4e6ae0	-0.20157957
54	0xbd95305c	-0.072846144
55	0x3dacea2c	0.08443102
56	0x3e838f0e	0.2569508
57	0x3dcf072f	0.10108792
58	0x3db14936	0.08656542
59	0x3d54af38	0.051924914
60	0x3e0a74d9	0.13521136
61	0x3e142a70	0.14469314
62	0x3d134de2	0.035962947
63	0xbce668db	-0.02812617
64	0xbc61443d	-0.013749179
65	0x3c7a99f6	0.015295496
66	0x3de32d76	0.11092655
67	0xbd91c79e	-0.07118152
68	0xbbb965c6	-0.0056578843
69	0x3c2580fe	0.010101555
70	0x3d633fa9	0.055480633
71	0xbdc9458f	-0.098277204
72	0x3e839290	0.25697756
73	0xbe60667b	-0.21914093
74	0x3e27fc8b	0.16404931
75	0xbe141a30	-0.14463115
76	0x3e05674d	0.13027687
77	0x3d1a349e	0.037647836
78	0x3e017dcd	0.12645645
79	0xbe0ee395	-0.13954003
80	0x3e6e9709	0.23299803
81	0x3dd70e69	0.105007954
82	0xbdd11378	-0.102087915
83	0xbdd10162	-0.10205342
84	0x3e3df53d	0.18550582
85	0xbc823468	-0.01589413
86	0x3e2eaf62	0.1705909
87	0x3e587df1	0.21141793
88	0x3e14103f	0.14459322
89	0x3e4bd1e3	0.19904284
90	0x3cbba137	0.022904022
91	0xbdd449c4	-0.10365632
92	0x3e6701a3	0.22559218
93	0xbda126f1	-0.078687556
94	0xbbd1b640	-0.0063998997
95	0x3eb05f35	0.34447637
96	0xbe1ec7c0	-0.15505886
97	0xbcb6cdad	-0.02231487
98	0xbd9fc36a	-0.07800944
99	0x3d88f6e7	0.06687718
100	0x3bcc71e8	0.0062391646
101	0xbd29f26a	-0.04149095
102	0x3e224660	0.15847158
103	0x3bec736f	0.007215909
104	0xbe4c3467	-0.19941865
105	0xbd0394a7	-0.032124188
106	0x3dc38d28	0.09548408
107	0x3cc78947	0.024357451
108	0x3bd5ff19	0.006530654
109	0xbd552a4d	-0.052042294
110	0xbecccaf7	-0.399986
111	0xbdfd2d78	-0.12362188
112	0xbb02c497	-0.0019953602
113	0xbce8365f	-0.028346239
114	0xbe48a11d	-0.1959271
115	0x3e72a5d2	0.23696068
116	0xbe9de1f9	-0.30836466
117	0x3d853fbe	0.065062985
118	0x3e22c3f4	0.15895063
119	0xbe28b6db	-0.16476004
120	0xbe09720e	-0.13422415
121	0xbe0f90f7	-0.14020143
122	0x3ed9c5f3	0.42533836
123	0x3e92a826	0.28643912
124	0xbdbecf52	-0.09316887
125	0x3ea16442	0.31521803
126	0x3d576a2f	0.0525915
127	0x3e7647cc	0.24050826
128	0xbd99e42d	-0.07514224
129	0xbe0bec6a	-0.13664404
130	0xbd762710	-0.060095847
131	0x3d8fe95f	0.07026934
132	0x3db60703	0.08888056
133	0x3c8c6138	0.017136201
134	0xbddf7709	-0.10911376
135	0xbe0e3e36	-0.13890919
136	0xbd0c86c2	-0.034308203
137	0xbdd8f952	-0.10594429
138	0x3d8aeea0	0.06783795
139	0x3c020d51	0.007937745
140	0x3d2ef36d	0.042712618
141	0xbda7a5be	-0.0818591
142	0xbc6032bf	-0.013683974
143	0xbdd6dd42	-0.1049142
144	0xbda04be2	-0.078269735
145	0xbdfce9ee	-0.12349306
146	0xbdb4baa9	-0.08824665
147	0xbcd1d513	-0.025614297
148	0xbd3970a5	-0.04527344
149	0x3d8bde45	0.06829504
150	0xbdc19cdc	-0.09453747
151	0xbd9631a9	-0.07333691
152	0x3c53d2a7	0.012928641
153	0xbda50aea	-0.08058722
154	0xbde772ca	-0.11301191
155	0x3c0469a0	0.008081824
156	0x3d16eb3d	0.036845434
157	0x3d8c5ec3	0.06854012
158	0xbd58449c	-0.052799806
159	0x3dd17f7c	0.10229394
160	0xbe05e8c1	-0.1307707
161	0xbe0515ad	-0.1299655
162	0x3ce0777e	0.027400728
163	0xbdc7053e	-0.09717797
164	0x3cffd5ec	0.031229936
165	0x3dde4359	0.10852689
166	0x3df9060f	0.12159359
167	0x3d633b1a	0.055476286
168	0xbe191970	-0.1495111
169	0x3c232be2	0.009959193
170	0xbe0ba1c2	-0.13635924
171	0xbc88a86e	-0.016681876
172	0xbd14887e	-0.03626298
173	0x3d1331d4	0.03593619
174	0x3ca4a290	0.020097047
175	0xbd933f6e	-0.07189833
176	0xbb25c65e	-0.0025295238
177	0xbdc8c8b0	-0.09803903
178	0xbd9d5ef2	-0.07684125
179	0xbe0d3eca	-0.13793483
180	0xbdee23d3	-0.11627927
181	0xbdcaf04e	-0.09909116
182	0xbd8b27d3	-0.06794705
183	0xbd7b418d	-0.06134181
184	0xbd275b72	-0.040858693
185	0x3c9f4d80	0.019446135
186	0x3c15fd8d	0.0091546895
187	0xbd6ab7ff	-0.05730438
188	0xbd8908b3	-0.06691112
189	0x3d8139b6	0.063098356
190	0xbdebe1b0	-0.11517656
191	0xbb16dc2c	-0.0023019416
192	0x3e1137b8	0.14181411
193	0xbdb88570	-0.09009826
194	0x3d8b40cb	0.06799468
195	0xbe44c32e	-0.1921508
196	0x3e134dac	0.14385098
197	0x3c23b029	0.00999073
198	0xbd9d1b7c	-0.07671258
199	0xbe3bf09e	-0.18353507
200	0x3d96b415	0.07358567
201	0xbe94a6d3	-0.29033527
202	0xbe1cdad6	-0.15317854
203	0x3dc3e67a	0.09565444
204	0x3e1c9033	0.15289383
205	0xbceb77b2	-0.028743599
206	0xbe32fa59	-0.17478313
207	0x3e57c0a8	0.21069586
208	0xbe88fce5	-0.26755443
209	0x3e259338	0.16169441
210	0x3dc22322	0.09479357
211	0xbb9f1969	-0.004855324
212	0xbd05d994	-0.0326782
213	0x3e11a7a7	0.1422411
214	0xbe35a49d	-0.17738576
215	0xbd138b9a	-0.036021806
216	0xbcd27b11	-0.025693448
217	0xbd73741d	-0.059436906
218	0xbb8181a8	-0.003952224
219	0x3cc625e0	0.024187982
220	0xbc563b0e	-0.013075603
221	0x3e327c76	0.1743029
222	0xbc2bb4d0	-0.010480121
223	0x3eb2f410	0.3495183
224	0xbe09d0c1	-0.1345854
225	0xbe5d4a0c	-0.21610278
226	0x3c74cec3	0.014941874
227	0xbd8d8734	-0.069105536
228	0x3de014b4	0.10941449
229	0xbd7551b1	-0.05989236
230	0xbe68ee6c	-0.227472
231	0x3d499b84	0.049220577
232	0xbeaab70f	-0.33342788
233	0x3ce8d9e4	0.02842421
234	0x3dfc7aad	0.12328086
235	0x3d7e9a0e	0.062158637
236	0x3e09a061	0.13440086
237	0xbdcefa52	-0.101063386
238	0xbc2ded78	-0.010615699
239	0xbc70d647	-0.014699525
240	0x3e4ad31e	0.19807097
241	0x3e9b19e2	0.30293185
242	0xbdb1fcea	-0.08690818
243	0x3bb4b1d1	0.0055143614
244	0xbd9ad9db	-0.07561084
245	0x3d9407fb	0.07228085
246	0x3df88b1a	0.121359065
247	0x3e2e1a15	0.17002137
248	0xbda6a702	-0.08137323
249	0xbc9c8e63	-0.019110864
250	0x3de6b0cc	0.1126419
251	0xbd5b2768	-0.053504378
252	0x3b233c13	0.0024907633
253	0xbe4a759f	-0.19771431
254	0x3ddd93ec	0.108192295
255	0x3c9cf7cf	0.019161133

fc2.bias f4 [64]
0	0x3dd8746b	0.1056908
1	0x3cf75b59	0.030194925
2	0x3db9bda4	0.09069374
3	0x3da30799	0.079604335
4	0xbd3bf068	-0.045883566
5	0xbd707309	-0.058703456
6	0xbd2bb92f	-0.04192465
7	0x3dd78839	0.10524029
8	0xbdaa06c6	-0.08302073
9	0xbc74a02c	-0.014930766
10	0xbdea9647	-0.114544444
11	0x3ccd6948	0.025074616
12	0x3cb60b68	0.022222236
13	0xbd98cd06	-0.0746098
14	0xbc9938b5	-0.018703798
15	0xbcebd3da	-0.028787542
16	0x3d78c539	0.06073496
17	0x3cf9c259	0.03048818
18	0x3e2c4b42	0.16825584
19	0x3d7683ad	0.06018417
20	0xbdfb3740	-0.122663975
21	0xbc94b701	-0.01815367
22	0xbdc7f86a	-0.09764178
23	0xbd271642	-0.04079271
24	0x3d3ef386	0.04661896
25	0x3d581dbe	0.05276274
26	0xbd7e925f	-0.06215131
27	0x3d003e12	0.031309195
28	0xbdd5ae91	-0.104336865
29	0xbd85253a	-0.06501241
30	0x3d5f0f86	0.054458164
31	0x3e115f17	0.1419643
32	0xbd53e323	-0.051730286
33	0xbdac7775	-0.08421222
34	0xbe0763eb	-0.1322171
35	0x3d85d734	0.06535187
36	0xbd9d5f9e	-0.07684253
37	0xbd4cb4d9	-0.049977157
38	0xbc75ee40	-0.0150104165
39	0xbdefea6b	-0.117146336
40	0xbd2d067d	-0.042242516
41	0xbd35e801	-0.04441071
42	0xbd293b7c	-0.041316494
43	0xbcc8205c	-0.024429493
44	0x3c5fd5d7	0.013661823
45	0x3e21e5e1	0.15810348
46	0x3d8d052a	0.068857506
47	0x3df16d3c	0.11788413
48	0x3c93eda4	0.018057652
49	0xbd3bbdd6	-0.04583534
50	0xbd29270c	-0.041297004
51	0x3d597490	0.05308968
52	0xbd2e735b	-0.04259048
53	0xbc186170	-0.009300575
54	0x3c75dca8	0.015006222
55	0xbdc6039d	-0.09668658
56	0x3a20de12	0.00061366067
57	0xbcfab7bb	-0.030605188
58	0x3d36aa92	0.044596262
59	0xbd1d9d06	-0.038479827
60	0xbd011cf9	-0.03152177
61	0xbd4f3f9c	-0.050597772
62	0x3d971d3d	0.07378624
63	0xbde9c5e6	-0.11414699

fc3.weight f4 [26, 64]
0	0x3d96620f	0.07342922
1	0x3c8e8f6c	0.017402373
2	0x3d1d0c22	0.03834165
3	0xbe17424f	-0.14771388
4	0xbdb22d26	-0.08700018
5	0xbdf5cb35	-0.12001649
6	0x3dcfb968	0.10142785
7	0xbca1afdb	-0.019737175
8	0x3e5312de	0.20612666
9	0xbe05a8e4	-0.13052708
10	0xbcaa9f61	-0.02082795
11	0xbd560c08	-0.052257568
12	0x3d05acbe	0.032635443
13	0xbdb2e80a	-0.08735664
14	0x3d08ba22	0.033380635
15	0x3c85ffd7	0.016357346
16	0xbc2274b1	-0.009915517
17	0xbd64ff82	-0.055907734
18	0x3c8fe66a	0.017565925
19	0x3df81340	0.12113047
20	0xbb1b1d00	-0.0023668408
21	0x3e8866a2	0.26640803
22	0x3e07de9b	0.13268511
23	0xbd381bc8	-0.04494837
24	0xbd632bdb	-0.055461746
25	0x3e513f33	0.20434265
26	0x3d26ce31	0.040723983
27	0x3e41a46a	0.18910375
28	0x3e75f8b8	0.2402066
29	0x3e07d701	0.13265611
30	0xbd204a72	-0.039133497
31	0x3d49b8ef	0.049248632
32	0xbca607c8	-0.020267382
33	0xbdf06668	-0.117382824
34	0xbd96e8b3	-0.073686026
35	0x3dee1c8b	0.11626538
36	0x3df9cd58	0.12197369
37	0xbe13d961	-0.14438392
38	0xbd4414d1	-0.047871415
39	0x3e2dba73	0.16965656
40	0xbc0fd009	-0.008777627
41	0x3e31cb59	0.17362727
42	0x3d119b58	0.035548538
43	0x3df5924a	0.11990793
44	0xbd1ee256	-0.03879007
45	0x3c8ec6b0	0.017428726
46	0x3e88d347	0.26723692
47	0x3d47a628	0.048742443
48	0x3dc7f439	0.09763379
49	0x3bd0f552	0.0063769007
50	0xbd3d193c	-0.046166644
51	0x3dee8f6e	0.11648451
52	0x3b5a68e2	0.0033326675
53	0x3c96509c	0.018348984
54	0xbdb04051	-0.086060174
55	0xbd2538b5	-0.040337283
56	0x3da9b16c	0.08285794
57	0xbdc131aa	-0.09433301
58	0xbcac6718	-0.021045253
59	0xbd0c71d1	-0.03428823
60	0xbd79c348	-0.06097725
61	0xbc62f505	-0.0138523625
62	0xbd4194e0	-0.04726112
63	0x3d87b7f5	0.06626884
64	0x3d860f25	0.06545857
65	0x3e17a98d	0.14810772
66	0x3a04367d	0.000504352
67	0xbd19be92	-0.037535258
68	0xbc564f99	-0.013080501
69	0x3e1f0d51	0.15532424
70	0x3dc28064	0.09497145
71	0xbd5d0612	-0.053960867
72	0x3db2eb43	0.08736279
73	0xbad22744	-0.0016033431
74	0x3d8c9ee1	0.06866241
75	0x3e21720d	0.15766163
76	0xbd5df59f	-0.05418932
77	0x3de28a2c	0.110615104
78	0x3e573b70	0.21018767
79	0xbce05159	-0.02738254
80	0x3ccc4860	0.024936855
81	0x3d4b2c9c	0.04960309
82	0xbceb6bb9	-0.02873789
83	0x3d66419b	0.05621491
84	0x3d96726e	0.073460445
85	0xbee18381	-0.44045642
86	0xbd867428	-0.06565124
87	0x3d735db6	0.05941554
88	0x3da97eb9	0.082761236
89	0x3d26ebb6	0.040752135
90	0x3e0403fd	0.12892146
91	0x3dc81b08	0.09770781
92	0x3c84234e	0.016130116
93	0xbdab8be0	-0.083762884
94	0x3e02c15d	0.12769075
95	0x3e5c07f5	0.2148741
96	0xbbff777c	-0.007796226
97	0x3db51006	0.08840947
98	0x3d6048dc	0.054756984
99	0x3e255a54	0.16147739
100	0xbd15441b	-0.036441904
101	0xbe40a120	-0.18811464
102	0x3b0caecb	0.002146649
103	0x3c5ace60	0.013354868
104	0xbbe58f3d	-0.0070056007
105	0x3d4375c3	0.04771973
106	0x3d3d999a	0.046289064
107	0xbde27e55	-0.11059252
108	0x3e2cd6e7	0.16878854
109	0xbcb977a5	-0.022640059
110	0xbe172ef2	-0.14764002
111	0xbc9b3568	-0.018946365
112	0x3d06c321	0.032900933
113	0xbcb8ebba	-0.02257334
114	0xbdec3862	-0.11534192
115	0xbce5f78e	-0.028072145
116	0xbbf9b3cd	-0.007620311
117	0xbe3b5ba6	-0.1829668
118	0x3d8f872f	0.07008206
119	0xbbcb605a	-0.0062065544
120	0xbdac828d	-0.08423338
121	0x3e35bc10	0.17747521
122	0xbde77479	-0.11301512
123	0xbd9f1c86	-0.07769112
124	0xbd92219f	-0.07135319
125	0x3c8ab8ca	0.016933817
126	0xbdb4a9a8	-0.08821422
127	0xbda4dcd9	-0.08049936
128	0x3e8c234f	0.27370688
129	0xbd38c2cc	-0.045107648
130	0xbdfdf6aa	-0.12400563
131	0x3de0d406	0.1097794
132	0x3dca5934	0.098802954
133	0xbd5e5fc6	-0.054290555
134	0x3caba760	0.020953834
135	0x3deaaf6c	0.1145924
136	0xbcaa4d6f	-0.020788876
137	0xbd94ccfe	-0.07265662
138	0x3c90bf02	0.017669205
139	0x3d47ef09	0.048811946
140	0x3c98ce7e	0.01865315
141	0xbdc69467	-0.09696274
142	0xbd5b4a7d	-0.053537834
143	0x3db4bbd5	0.088248886
144	0xbd547593	-0.05186994
145	0xbd82a853	-0.063797615
146	0x3d8cbc9a	0.068719104
147	0x3e055523	0.13020758
148	0xbde0baa8	-0.10973102
149	0x3e02d9aa	0.12778345
150	0x3e8d9195	0.27650133
151	0xbb8cb72b	-0.0042942963
152	0xbde468c5	-0.11152796
153	0x3de5fe9c	0.112302035
154	0xbdd12506	-0.1021214
155	0x3df93d70	0.121699214
156	0x3cc3ae5a	0.023886848
157	0xbd8a7fbd	-0.067626454
158	0x3c757242	0.0149808545
159	0x3e2ac170	0.16675353
160	0xbcdbce80	-0.026831865
161	0x3ccdc197	0.025116725
162	0x3ca07c3d	0.019590491
163	0xbe08928a	-0.1333715
164	0x3e082f57	0.13299309
165	0xbe53a4fe	-0.20668408
166	0x3d453f7e	0.048156254
167	0x3cf9ab8d	0.03047731
168	0xbb98b71e	-0.004660501
169	0x3e0a6275	0.13514121
170	0xbd8faf0f	-0.07015812
171	0xbdcbcb85	-0.09950928
172	0xbd049fb3	-0.032378864
173	0x3bdb3f1e	0.0066908738
174	0x3e28d711	0.16488291
175	0xbdc6da9c	-0.09709665
176	0xbda1d809	-0.079025336
177	0xbd3652ee	-0.04451268
178	0x3d9c0b54	0.07619348
179	0x3d947b6b	0.072501026
180	0x3beca55d	0.0072218613
181	0x3d852c42	0.06502582
182	0x3c1e1d96	0.0096506085
183	0x3e190df0	0.14946723
184	0xbc292c44	-0.010325495
185	0x3d8540b2	0.0650648
186	0x3e05692b	0.130284
187	0x3c3875f4	0.011258591
188	0x3d9ba3bf	0.075995915
189	0xbd9bd0c6	-0.0760818
190	0x3d8e6790	0.06953347
191	0x3cf71250	0.0301601
192	0xbc6c00b3	-0.014404464
193	0x3dcc5e5d	0.09978936
194	0xbd70522e	-0.058672123
195	0x3b76826f	0.0037614366
196	0x3ccadfa2	0.02476484
197	0x3e1a0a1d	0.1504292
198	0x3dde29d7	0.10847824
199	0x3d35ff0b	0.04443268
200	0xba6e7c3e	-0.0009097493
201	0x3ca49fb6	0.020095687
202	0x3dca4aad	0.098775245
203	0x3d886bbb	0.06661173
204	0xbd188ac1	-0.0372417
205	0x3dde21aa	0.10846265
206	0x3dc37247	0.09543281
207	0xbe063ae5	-0.13108404
208	0x3c3d9d3a	0.01157313
209	0x3d329b70	0.043605268
210	0x3cb23592	0.02175406
211	0x3d72d7cd	0.059287835
212	0xbde2359a	-0.1104538
213	0xbe5881d3	-0.21143274
214	0x3cb4ebea	0.022085149
215	0x3d0c740c	0.03429036
216	0x3d00e3eb	0.03146736
217	0x3db335af	0.08750474
218	0x3db767f5	0.08955375
219	0xbd3c744a	-0.04600934
220	0x3e22ba8b	0.15891473
221	0xbd27364c	-0.040823266
222	0xbe2fdb08	-0.17173398
223	0x3e0fbbbd	0.1403646
224	0xbba8199c	-0.005130006
225	0x3ddf3769	0.108992405
226	0x3c555cf8	0.013022654
227	0x3d6da2dd	0.058016647
228	0x3d39013d	0.045167197
229	0xbe27b39e	-0.16377112
230	0x3c955f23	0.018233841
231	0xbd12dae4	-0.03585328
232	0xbd817733	-0.063215636
233	0x3c84ce34	0.016211607
234	0x3c6713af	0.014103814
235	0xbc832435	-0.016008476
236	0x3e21b543	0.15791802
237	0x3ca8da72	0.020611975
238	0xbd9086ca	-0.07056959
239	0x3c8494a0	0.016184151
240	0x3e000f08	0.12505734
241	0x3cbf8e20	0.0233832
242	0xbd8bdefc	-0.0682964
243	0x3c217763	0.009855124
244	0xbc7d4a8d	-0.015459669
245	0xbc59e0db	-0.013298239
246	0x3d7fa0dc	0.062409267
247	0x3da257d1	0.07926906
248	0x3d4a417a	0.04937885
249	0x3e41986d	0.18905802
250	0xbdc29ef9	-0.09502978
251	0x3c9564bd	0.018236512
252	0xbd4975d9	-0.049184654
253	0xbd07ad88	-0.033124477
254	0x3c217fee	0.009857161
255	0xbda999a7	-0.0828126

fc3.bias f4 [26]
0	0x3c5d75c8	0.013516851
1	0xbd95c2a4	-0.073125154
2	0xbd87f9aa	-0.066394165
3	0xbca7cde3	-0.020483917
4	0x3d9d7fbd	0.0769038
5	0xbd607e13	-0.054807734
6	0xbd8e9e2e	-0.06963764
7	0x3d1e3926	0.03862872
8	0x3e03b04c	0.1286022
9	0xbccd6965	-0.02507467
10	0xbd4568dc	-0.048195705
11	0x3d8ed086	0.069733664
12	0x3dbbb3f0	0.0916518
13	0x3db62f6b	0.08895763
14	0x3cd28972	0.025700305
15	0x3db0f9fa	0.08641429
16	0x3d7fb885	0.06243183
17	0x3d153397	0.036426153
18	0xbc994e4a	-0.018714089
19	0x3e177f0f	0.14794563
20	0x3da851d9	0.08218736
21	0xbd4950f5	-0.049149472
22	0xbc4db01e	-0.012554197
23	0x3e4492ce	0.19196627
24	0xbd478cc4	-0.04871823
25	0x3d4b2beb	0.04960243
