weights/pose_predictor_epoch20.pth (torch, 35935 bytes, 6 tensors)

fc1.weight f4 [64, 39]
0	0x3f19e775	0.601188
1	0xbdd12987	-0.10212999
2	0x3c80f201	0.015740396
3	0xbf166c5c	-0.58759093
4	0x3d357ef2	0.044310518
5	0xbca0501b	-0.019569447
6	0xbf0de80e	-0.5543221
7	0xbdabf072	-0.08395471
8	0xbc138aca	-0.009005258
9	0xbc15bccf	-0.009139254
10	0x3c93d726	0.018046927
11	0x3b529baa	0.003213624
12	0xbcc1d89c	-0.023662858
13	0x3cc56893	0.024097716
14	0xbc008a1c	-0.007845428
15	0x3d45c894	0.04828699
16	0x3d4ba988	0.049722224
17	0xba85a6eb	-0.001019684
18	0x3d0e9c51	0.034817044
19	0xbd8a0d3f	-0.06740808
20	0x3a86d96c	0.0010288185
21	0x3e865dba	0.26243383
22	0xbd5f02e4	-0.054446116
23	0x3a22dc53	0.00062126404
24	0x3ed1b15e	0.40955633
25	0xbe3ee44c	-0.18641776
26	0xbb929b57	-0.0044740844
27	0xbc810b05	-0.015752325
28	0x3d4f1a34	0.0505621
29	0x3c0702e9	0.00824044
30	0xbd14d2de	-0.03633391
31	0xbccbcd03	-0.02487803
32	0x3c0c838c	0.008576285
33	0xbd579707	-0.052634265
34	0x3d8d7463	0.06906965
35	0x3ba6ea71	0.0050938656
36	0xbc4ea0a9	-0.012611547
37	0x3be83970	0.007086925
38	0x3bdb0b88	0.0066847242
39	0xbd36be19	-0.044614885
40	0xbd3d2c8b	-0.046185058
41	0xbb9329a1	-0.0044910465
42	0x3e33617c	0.17517656
43	0xbdd99827	-0.10624724
44	0x3dd8b8ec	0.10582146
45	0x3e2aa044	0.16662699
46	0x3d80f2dd	0.062963225
47	0xbdc0c40e	-0.094123945
48	0x3d9aef75	0.07565204
49	0x3de732c5	0.112889804
50	0xbc203406	-0.009778028
51	0x3cf0faae	0.029416408
52	0x3e05cbdf	0.13066052
53	0xbd99f533	-0.07517471
54	0x3e5690c0	0.20953655
55	0xbc988dfa	-0.018622387
56	0x3c79ef96	0.015254876
57	0x3c8a54c1	0.016886117
58	0xbe011e0b	-0.12609117
59	0x3ca98d74	0.020697333
60	0x3cb98abf	0.022649167
61	0xbde50d6c	-0.11184201
62	0xbd8f90cc	-0.0701004
63	0x3e0e6ef1	0.13909508
64	0x3cc8a2a6	0.02449162
65	0x3cccd85c	0.025005512
66	0x3e3a7340	0.18208027
67	0x3d1227ed	0.035682607
68	0x3adf70f8	0.0017047217
69	0x3e3c9e36	0.18419728
70	0x3d3ea8bc	0.046547636
71	0xbc4333ce	-0.011914207
72	0x3e7b4a62	0.24540094
73	0xbbd3e912	-0.006466993
74	0x3d6ef1aa	0.058335938
75	0x3dc5aa21	0.0965159
76	0x3aecee20	0.0018076338
77	0xbda03ada	-0.07823725
78	0x3b122fce	0.0022306326
79	0x3c4a4bf6	0.012347212
80	0x3c5d74fd	0.013516662
81	0xbda1ef7f	-0.079070084
82	0xbe1b947e	-0.15193364
83	0xbb05b88d	-0.002040419
84	0x3e125e7e	0.14293858
85	0xbd56d47a	-0.052448727
86	0xbc28832c	-0.01028518
87	0xbd6012f7	-0.054705586
88	0xbcadd086	-0.021217596
89	0xba6b27bd	-0.000897046
90	0xbc919888	-0.017772928
91	0xbb3f48f0	-0.0029187761
92	0xbb8e995d	-0.0043517784
93	0x3e27e29c	0.16395038
94	0x3ce993b4	0.028512813
95	0xbb866dac	-0.0041024294
96	0x3d5b9222	0.05360616
97	0x3db5d3e3	0.08878305
98	0xbc117b5a	-0.008879507
99	0x3d068c7b	0.032848816
100	0x3eadd2b3	0.33949813
101	0xba2a9314	-0.00065069017
102	0x3e8d2b89	0.27572277
103	0x3ed95394	0.42446578
104	0xbb6f51e8	-0.0036517326
105	0x3cdec359	0.027192758
106	0x3c286afd	0.010279414
107	0xbd1ec278	-0.03875968
108	0xbf58cb23	-0.8468496
109	0xbf786069	-0.9702211
110	0xbf815fe8	-1.0107393
111	0xbd86a03d	-0.06573532
112	0x3dc00739	0.093763776
113	0xbcf91237	-0.030404193
114	0xbb55ea68	-0.0032640938
115	0x3d0c31f1	0.034227315
116	0xbd014278	-0.03155753
117	0x3e0b3416	0.13594088
118	0xbdcb5596	-0.099284336
119	0x3d01bbe0	0.031673312
120	0x3d4f62c2	0.050631292
121	0xbba5aca1	-0.0050559794
122	0xbb0d38fc	-0.0021548858
123	0x3e4963dc	0.19667
124	0xbdd84ba5	-0.10561303
125	0x3ce334d3	0.02773515
126	0xbd4cfa47	-0.05004337
127	0x3d8fd3a6	0.070227906
128	0x3c66fe58	0.014098726
129	0x3e5ff398	0.21870267
130	0xbd2a1892	-0.04152734
131	0x3d0d2fb0	0.034469306
132	0xbd27cacf	-0.040964898
133	0x3d0e260f	0.034704264
134	0x3bdac981	0.006676853
135	0xbdbd2523	-0.09235599
136	0x3c134346	0.008988207
137	0x3c098471	0.008393393
138	0xbe991286	-0.29896945
139	0x3eb45b04	0.3522569
140	0x3c84f26e	0.01622888
141	0xbeb705a5	-0.35746494
142	0x3e8bf871	0.27337983
143	0x3c90bcbe	0.017668124
144	0xbe3bb202	-0.18329623
145	0xbe0f3e81	-0.13988687
146	0xbd9ea6b3	-0.07746639
147	0xbe5108a5	-0.20413454
148	0x3e5474e8	0.20747721
149	0xbd183004	-0.037155166
150	0x3e403254	0.18769199
151	0xbef868ab	-0.48517355
152	0xbe8fcb3f	-0.28084752
153	0xbdbbd9ad	-0.09172378
154	0x3dcfb008	0.10140997
155	0xbd314591	-0.043279234
156	0xbddcb6c0	-0.10777044
157	0xbd8a31d9	-0.06747789
158	0x3c86f76a	0.016475398
159	0xbda105ad	-0.07862411
160	0xbe51dee7	-0.20495187
161	0xbba4f00e	-0.0050334996
162	0x3e99ee38	0.3006456
163	0x3e8ad23e	0.27113527
164	0x3c805c1d	0.015668923
165	0xbc302b96	-0.010752579
166	0xbdfa08cf	-0.12208711
167	0x3d21e635	0.039526183
168	0x3e751075	0.23932059
169	0x3e1436f7	0.14474092
170	0xbd1a1940	-0.037621737
171	0x3eb6c430	0.35696554
172	0xbe6edbce	-0.23326036
173	0x3df75a61	0.12077785
174	0x3e32b7cb	0.17452924
175	0x3e53ba26	0.20676479
176	0xbc5fcbc4	-0.013659421
177	0x3d876b8f	0.06612312
178	0xbd7952af	-0.06086987
179	0xbdabcae7	-0.0838831
180	0x3dcc36da	0.099713996
181	0xbd320269	-0.04345933
182	0xbd03c5f8	-0.03217122
183	0x3dc888bd	0.09791706
184	0xbdbd9ba6	-0.09258203
185	0x3bc1b237	0.0059111374
186	0x3dc845ff	0.09778976
187	0xbd514f0a	-0.05110077
188	0x3d8061ba	0.0626864
189	0xbe91b940	-0.28461647
190	0x3cb51f9d	0.022109801
191	0x3dad011d	0.08447478
192	0xbd8bfedd	-0.06835721
193	0x3cf5c577	0.030001385
194	0x3ddf4aac	0.109029144
195	0x3e00dea9	0.12584938
196	0x3ec4e0d3	0.38452777
197	0x3b9fb9c9	0.0048744422
198	0x3ce6e6fc	0.028186314
199	0xbaed5172	-0.0018105938
200	0xbb054e58	-0.0020340886
201	0x3d648148	0.055787355
202	0x3ccce519	0.025011586
203	0xbcb7f933	-0.022457695
204	0xbbd086c0	-0.0063637197
205	0xbc1ded06	-0.00963903
206	0x3b920677	0.004456337
207	0xbf37f79a	-0.71862185
208	0xbf3baf5b	-0.73314446
209	0xbf386775	-0.7203286
210	0xbcc124af	-0.023577062
211	0x3d1dd389	0.038531814
212	0xbb01cd4e	-0.001980621
213	0x3e026476	0.12733635
214	0x3a2858c5	0.0006421919
215	0xbd0bca91	-0.03412873
216	0x3cecb0ad	0.02889284
217	0xbcd79177	-0.02631448
218	0xbb7e94b2	-0.0038845954
219	0x3c9a8798	0.018863484
220	0x3bf3cc7f	0.0074401493
221	0xbc32342b	-0.010876696
222	0xbd63e6b1	-0.055639926
223	0x3cbf6725	0.023364613
224	0xbb1ff473	-0.0024407178
225	0x3e6bf4fa	0.2304267
226	0x3d2b7a59	0.041864727
227	0x3b0e9df4	0.0021761628
228	0x3d9e719b	0.07736512
229	0xbcf30355	-0.029664675
230	0xbb1c8900	-0.002388537
231	0x3b24d97b	0.0025154043
232	0x3dbea77e	0.0930929
233	0x3b917f56	0.0044402285
234	0x3d5445b6	0.051824294
235	0x3e642e21	0.22283222
236	0x3b94b25c	0.0045378637
237	0x3d02ea12	0.031961508
238	0x3e8d0bd2	0.2754808
239	0xbd061426	-0.03273406
240	0x3ca0f299	0.01964693
241	0x3c0c651b	0.008569027
242	0xbbcd2882	-0.0062609324
243	0x3d96a5a9	0.07355816
244	0xbdd2c275	-0.10290996
245	0xbcc09809	-0.023509996
246	0xbdab4e9a	-0.083646014
247	0x3c9f4ca0	0.019445717
248	0x3da29d71	0.07940186
249	0x3c45f6dd	0.012082783
250	0x3c98186f	0.018566338
251	0xbd341f27	-0.04397502
252	0xbd42a3fe	-0.047519676
253	0xbcd1b013	-0.025596654
254	0x3dc4490f	0.09584247
255	0x3c3441bc	0.011002

fc1.bias f4 [64]
0	0xbc880454	-0.016603626
1	0x3d918dec	0.071071476
2	0x3dac5732	0.08415069
3	0x3d5e79db	0.05431543
4	0x3dbce6b0	0.09223688
5	0x3d154d94	0.036450937
6	0xbd4850de	-0.048905246
7	0x3e040ae6	0.12894782
8	0x3e6f8894	0.23391944
9	0x3cc0c7b3	0.023532724
10	0xbd243e62	-0.040098555
11	0x3dccc65c	0.099987715
12	0x3d8b094e	0.06788884
13	0x3dd861bb	0.105655156
14	0xbcd7519f	-0.026284037
15	0xbd686a8f	-0.056742247
16	0x3cc66798	0.02421932
17	0x3e941d1c	0.2892846
18	0x3d0d6430	0.034519374
19	0xbb9ba9bb	-0.004750458
20	0xbb955e9b	-0.004558397
21	0xbdf35d8d	-0.11883078
22	0xbc3934d6	-0.011304101
23	0x3e227740	0.15865803
24	0x3bace5d7	0.0052764225
25	0xbbcb0e1b	-0.00619675
26	0xbcac5e3e	-0.021041032
27	0x3d77bd3b	0.0604832
28	0xbd3afeaf	-0.04565304
29	0x3d85e05a	0.06536932
30	0xbdf56f41	-0.119841106
31	0x3cfbd75d	0.030742342
32	0xbc764a32	-0.015032338
33	0x3c906d86	0.01763035
34	0x3a8cdc97	0.0010746893
35	0x3d5ba3f4	0.053623155
36	0x3d1dc33c	0.038516268
37	0xbdb0d4f2	-0.08634366
38	0x3da81fbf	0.0820918
39	0x3daf535c	0.085608214
40	0xbd4f968d	-0.050680686
41	0x3de6353d	0.11240623
42	0x3d91399e	0.07091068
43	0xbc4f76fb	-0.0126626445
44	0x3e0dea8e	0.13859007
45	0xbd8b2d58	-0.06795758
46	0x3dae3b41	0.085073955
47	0xbdb4b3db	-0.08823367
48	0x3e2aea25	0.16690882
49	0xbcac8df2	-0.021063779
50	0xbd7e8c09	-0.062145267
51	0x3e045094	0.12921363
52	0x3d165d42	0.03671003
53	0xbbd6c4af	-0.006554208
54	0xbca3f944	-0.02001632
55	0x3d3ac91c	0.04560195
56	0xbdd7f61d	-0.10544989
57	0xbdb6d935	-0.08928148
58	0x3dcdeb1e	0.10054611
59	0x3d7b33da	0.061328746
60	0x3e092cf3	0.13396053
61	0xbdc7abe6	-0.09749584
62	0x3d0e3048	0.034714013
63	0xbdf8c2b8	-0.12146515

fc2.weight f4 [64, 64]
0	0x3e9b69f9	0.30354288
1	0xbde76fd3	-0.11300626
2	0x3ecbd5c4	0.39811528
3	0xbcadb7e1	-0.021205844
4	0xbe1926a0	-0.1495614
5	0xbdf11398	-0.11771315
6	0xbd80c859	-0.06288213
7	0x3e66c267	0.22535096
8	0xbdcde0cb	-0.100526415
9	0x3d730774	0.05933328
10	0xbdaee2d6	-0.08539359
11	0xbdd3128a	-0.103062704
12	0xbd2eed4f	-0.042706784
13	0x3e0247f9	0.12722768
14	0x3daeee77	0.08541577
15	0xbd2221e3	-0.0395831
16	0x3dc96832	0.09834327
17	0x3d3cc378	0.04608485
18	0x3e0f5d46	0.14000425
19	0xbe20e2c2	-0.15711501
20	0x3c039e33	0.008033323
21	0xbdea26dd	-0.11433194
22	0xbdaf4745	-0.085585155
23	0x3c834f18	0.016028926
24	0x3cada96a	0.021198947
25	0x3cd43fc6	0.025909316
26	0x3da2b335	0.07944337
27	0x3d7b31d4	0.061326817
28	0xbda6e6da	-0.081495
29	0x3da7e979	0.08198828
30	0x3d882b7c	0.06648919
31	0x3d7c70fd	0.06163119
32	0xbe68cd1c	-0.22734493
33	0xbe2c0db9	-0.1680211
34	0x3cc64689	0.024203556
35	0x3e29f31c	0.16596645
36	0xbdc2d56c	-0.09513363
37	0xbd7e390c	-0.062066123
38	0xbe63f7f0	-0.2226255
39	0x3e7a9eb8	0.24474609
40	0xbc628eb1	-0.013827966
41	0xbbe12479	-0.006870803
42	0xbddafaf7	-0.10692399
43	0xbcaaceb6	-0.02085052
44	0xbe4c7aed	-0.19968767
45	0x3d279fa0	0.040923715
46	0xbca3ea07	-0.020009054
47	0xbd9b9463	-0.07596662
48	0x3c4276b3	0.01186912
49	0xbd9b9840	-0.07597399
50	0xbe5402dc	-0.20704216
51	0xbd45eba1	-0.048320416
52	0x3ee82987	0.45344183
53	0xbc114f30	-0.008868977
54	0x3d8488e2	0.06471421
55	0x3e031565	0.1280113
56	0x3de2e405	0.110786475
57	0xbd7fda41	-0.062464003
58	0x3d135407	0.035968807
59	0xbe5e481c	-0.21707195
60	0xbd8dc9e3	-0.069232725
61	0x3da0bb49	0.07848222
62	0x3e2df952	0.1698964
63	0x3e09ecb9	0.13469209
64	0x3b13687b	0.0022492695
65	0x3d87b54e	0.06626378
66	0x3e9434dc	0.28946579
67	0xbea9772e	-0.3309874
68	0x3d89e14d	0.06732426
69	0xbda68901	-0.081316
70	0xbe12f220	-0.14350176
71	0xbe2b2d13	-0.16716413
72	0x3c8f86f5	0.017520407
73	0x3ded86da	0.115979865
74	0xbcdc896a	-0.026920993
75	0x3cb18412	0.021669421
76	0x3e3a62f7	0.18201815
77	0x3e184134	0.14868623
78	0x3df6f2cb	0.12058028
79	0xbb37e970	-0.0028062724
80	0xbd1132b0	-0.03544873
81	0xbd258590	-0.04041058
82	0x3e1bfab5	0.15232356
83	0x3e68fff7	0.22753893
84	0xbcfb4a7a	-0.030675162
85	0x3da9aa7c	0.082844704
86	0xbe1b090e	-0.15140173
87	0x3d84dff9	0.06488032
88	0x3dddf465	0.1083763
89	0x3d4b48ea	0.049630083
90	0xbe2f03d8	-0.1709131
91	0xbd147da3	-0.03625263
92	0xbdae0ccb	-0.08498534
93	0x3e5026d7	0.20327316
94	0xbd8a0042	-0.067383304
95	0xbd909a5a	-0.0706069
96	0x3d265d61	0.040616397
97	0xbd8503b6	-0.064948484
98	0x3e689111	0.22711588
99	0xbdcd1abf	-0.10014867
100	0x3d06e7b1	0.032935802
101	0xbd27073c	-0.040778384
102	0x3d5c86bf	0.05383944
103	0x3ea691d8	0.32533145
104	0x3df56503	0.11982157
105	0xbe300ef0	-0.17193198
106	0xbe0db57e	-0.13838765
107	0xbd99f1ff	-0.0751686
108	0x3e2b0a93	0.16703252
109	0x3da22084	0.07916358
110	0x3dce6a24	0.100788385
111	0x3db99542	0.09061672
112	0x3d4d2772	0.050086446
113	0x3e00ce3a	0.12578669
114	0x3c75f599	0.015012168
115	0x3cbab89f	0.022793112
116	0x3e26b95c	0.16281646
117	0x3d94f526	0.07273321
118	0xbd068b15	-0.032847483
119	0xbccaa89d	-0.024738604
120	0xbde94960	-0.11390948
121	0xbdbc989a	-0.09208794
122	0xbc6c8890	-0.014436856
123	0x3cc5bc94	0.024137773
124	0xbe1cbf84	-0.15307432
125	0x3c8143d7	0.015779419
126	0xbd8da71f	-0.069166414
127	0x3cda82ac	0.026673637
128	0x3c8c1209	0.017098444
129	0x3d896af8	0.06709856
130	0xbda46d5e	-0.08028673
131	0xbe026151	-0.12732436
132	0xbd6eeb05	-0.0583296
133	0xbd928b3e	-0.071554646
134	0xbd6b33de	-0.05742251
135	0xbd74e254	-0.059786156
136	0xbdbff2f9	-0.09372515
137	0x3d3b2b34	0.0456955
138	0xbcfc1ed8	-0.030776426
139	0x3d3b1041	0.045669798
140	0x3da6b33c	0.08139655
141	0xbbe59102	-0.0070058117
142	0xbe1c0e9a	-0.15239945
143	0x3dbaccd7	0.09121101
144	0xbd4f0fd4	-0.050552204
145	0xbb0f93ad	-0.002190809
146	0x3d8474cf	0.06467592
147	0xbdbf534b	-0.09342059
148	0xbda64b9a	-0.081198886
149	0xbd29f578	-0.041493863
150	0x3d549c40	0.051906824
151	0xbd4a8233	-0.049440574
152	0xbb80696f	-0.0039188187
153	0xbdbc703b	-0.09201094
154	0x3b1f8f3a	0.0024346844
155	0x3a3bc2fa	0.00071625377
156	0xbde45330	-0.11148679
157	0x3db1e3a7	0.08685999
158	0xbdeaf418	-0.114723384
159	0x3d019c3a	0.03164313
160	0xbc4fdb81	-0.012686611
161	0xbdcb94ca	-0.09940489
162	0xbd0e181f	-0.034690972
163	0x3cdc1308	0.026864544
164	0xbd9b4284	-0.07581046
165	0xbc875ac8	-0.01652278
166	0x3d2c9371	0.0421328
167	0xbd2308df	-0.039803382
168	0x3d88497c	0.06654641
169	0xbde5cbe1	-0.112205274
170	0xbd8630e4	-0.06552294
171	0x3cf396d3	0.029735005
172	0x3c7ed3ab	0.015553395
173	0x3d98fb68	0.07469827
174	0xbd43b056	-0.04777559
175	0x3dc46890	0.09590256
176	0xbdefa3d5	-0.1170117
177	0xbde8245b	-0.11335059
178	0xbdd14bf8	-0.10219568
179	0x3d69bd2e	0.05706518
180	0x3de6434c	0.112433046
181	0x3dc1d15b	0.094637595
182	0x3d0bc497	0.03412303
183	0xbdbe1933	-0.0928215
184	0xbdefaf48	-0.11703354
185	0x3da2ac1b	0.07942983
186	0xbc927d25	-0.01788194
187	0x3d12cc78	0.035839528
188	0xbdb0bb8b	-0.08629521
189	0x3d0af628	0.03392616
190	0xbdaae225	-0.08343915
191	0x3d9d9828	0.07695037
192	0xbcc788dc	-0.024357252
193	0x3d9063d3	0.0705029
194	0x3da7d2e3	0.0819452
195	0xbde81cb6	-0.11333601
196	0xbce83f8a	-0.02835061
197	0xbbc63147	-0.006048355
198	0xbd6005d6	-0.054693066
199	0x3d2ca7c8	0.042152196
200	0xbde02617	-0.10944765
201	0xbe0aecc5	-0.13566883
202	0x3ce64e1e	0.028113421
203	0xbdbb9314	-0.09158912
204	0x3b02caa8	0.0019957218
205	0xbd154c43	-0.036449682
206	0xbd375001	-0.044754032
207	0xbd5416d2	-0.051779576
208	0xbdac30bc	-0.08407733
209	0xbe0766cc	-0.13222808
210	0xbde9d1c3	-0.11416962
211	0x3d9eb78d	0.07749853
212	0x3cff1731	0.031138988
213	0xbde7190b	-0.112840734
214	0xbcc4b7f3	-0.024013495
215	0xbca6a8c5	-0.020344147
216	0xbd457c5f	-0.048214313
217	0xbe0da660	-0.13832998
218	0xbe11f752	-0.14254501
219	0x3c50df19	0.012748503
220	0x3da23774	0.07920733
221	0x3cb19127	0.02167566
222	0xbd25bc94	-0.040463045
223	0x3d2bb907	0.041924503
224	0xbe020354	-0.12696582
225	0xbe0abd0b	-0.13548677
226	0x3d6d64a9	0.057957325
227	0xbe07decb	-0.13268583
228	0x3c11c3fd	0.008896825
229	0x3d092e42	0.03349138
230	0x3d3ae6d7	0.045630302
231	0xbde79557	-0.11307781
232	0xbdfb8eb4	-0.12283078
233	0xbd3925b0	-0.045201957
234	0x3db2bae8	0.08727056
235	0x3dc2499a	0.09486695
236	0x3ca167a5	0.019702742
237	0xbe008cd9	-0.12553729
238	0xbe0b5885	-0.13607986
239	0xbda33fb4	-0.07971135
240	0x3ccbe6c6	0.024890315
241	0xbe11dd42	-0.1424456
242	0xbda57fde	-0.08081029
243	0xbde73e63	-0.11291196
244	0xbe06d6f2	-0.13167933
245	0xbdba99a4	-0.09111336
246	0x3d343bed	0.044002462
247	0xbdd402bf	-0.10352086
248	0xbdc5894d	-0.09645329
249	0x3d39f854	0.04540284
250	0x3bb3aa60	0.0054829568
251	0x3db79705	0.089643516
252	0x3c7a05ab	0.01526014
253	0xbca3a238	-0.019974813
254	0xbd87479c	-0.06605455
255	0xbbd0c51e	-0.0063711544

fc2.bias f4 [64]
0	0x3de2fe98	0.11083716
1	0xbd970bc9	-0.07375295
2	0xbe08d74f	-0.13363384
3	0x3d4b2759	0.04959807
4	0x3dc046e5	0.09388522
5	0xbd7ec176	-0.062196217
6	0xbd1e2c1a	-0.038616277
7	0x3cb41bec	0.02198597
8	0xbdb8676c	-0.09004101
9	0x3c31b6be	0.010846792
10	0x3cfe2e82	0.031028036
11	0x3cd9ab31	0.026570888
12	0xbd19d0ba	-0.037552573
13	0x3d7d070f	0.06177431
14	0xbdc44cfc	-0.09584996
15	0x3de7eb57	0.113241844
16	0x3d8c6a0f	0.068561666
17	0xbda8fac2	-0.08250953
18	0xbdd0347b	-0.1016626
19	0x3d15dbc0	0.036586523
20	0x3d75a18a	0.05996851
21	0xbe15177c	-0.1455974
22	0xbc088eda	-0.00833484
23	0xbd1cd212	-0.038286276
24	0x3cfd608c	0.030929826
25	0xbc2b1b05	-0.010443454
26	0xbd89cbc8	-0.06728321
27	0xbd83689b	-0.06416436
28	0xbde989df	-0.1140325
29	0xbd1ad44a	-0.03780011
30	0xbd14b543	-0.036305677
31	0x3cf2807c	0.029602282
32	0xbd5dbb26	-0.054133557
33	0xbd970d05	-0.0737553
34	0xbddc7760	-0.107649565
35	0xbd982061	-0.07428051
36	0xbd63ef03	-0.05564786
37	0xbd149e53	-0.036283802
38	0xbd333eae	-0.043760948
39	0xbcab07c7	-0.020877732
40	0x3d9e08b3	0.07716503
41	0x3d22ec16	0.03977593
42	0x3d537a29	0.051630173
43	0xbd831f3c	-0.06402442
44	0xbe17603d	-0.14782806
45	0x3bd1b899	0.0064001796
46	0xbda93260	-0.082615614
47	0x3d851270	0.06497657
48	0x3c41cf2f	0.011829182
49	0x3e218628	0.15773833
50	0xbe07dec5	-0.13268574
51	0xbd41833f	-0.047244307
52	0x3cb106a8	0.02160962
53	0xbd9f1d31	-0.0776924
54	0xbd541350	-0.05177623
55	0x3d0d3aff	0.03448009
56	0x3db6296b	0.088946186
57	0xbd2aa18f	-0.04165798
58	0x3d4892e5	0.048968215
59	0xbd8cd4c6	-0.06876521
60	0xbc52e4b6	-0.012871912
61	0x3c10cd47	0.008838004
62	0x3db85a0a	0.090015486
63	0xbe159a1b	-0.14609568

fc3.weight f4 [26, 64]
0	0x3cb3b53b	0.021937003
1	0xbd591337	-0.05299684
2	0x3b8ef9d7	0.0043632793
3	0x3dd154b2	0.102212325
4	0x3c1d4fa5	0.009601508
5	0xbd4ecc0f	-0.050487574
6	0x3cac55ff	0.0210371
7	0xbcbbf95c	-0.022946052
8	0xbd28116f	-0.04103225
9	0xbca661e5	-0.020310352
10	0x3dd24b79	0.102683015
11	0x3e802886	0.25030917
12	0xbca43c6d	-0.020048345
13	0x3d413759	0.047171924
14	0xbe06e004	-0.13171393
15	0x3de87036	0.113495275
16	0xbd834702	-0.06410028
17	0xbdc600f0	-0.096681476
18	0x3e01ec65	0.12687834
19	0x3d93d7ab	0.0721887
20	0xbdd1187d	-0.10209749
21	0x3def3080	0.116791725
22	0xbe203b35	-0.15647586
23	0xbd6f0d6e	-0.058362417
24	0x3d90e353	0.07074609
25	0x3efffb8a	0.49996597
26	0xbd113a8b	-0.03545622
27	0x3c9854c7	0.018595112
28	0xbdc50ae9	-0.096212216
29	0x3e6290f8	0.22125614
30	0xbc29fe23	-0.010375532
31	0x3c49a223	0.012306723
32	0xbd760c52	-0.060070343
33	0x3e068998	0.13138425
34	0xbd3a1b48	-0.045436174
35	0x3c3b4c2a	0.011431733
36	0xbd08e26c	-0.033419058
37	0xbe0bdcc5	-0.13658436
38	0xbcf7caff	-0.030248163
39	0x3dc5adba	0.09652276
40	0xbce361b5	-0.027756551
41	0xbdb313ad	-0.08743987
42	0x3e3739b8	0.17893112
43	0xbc08998f	-0.0083373925
44	0x3e5aa361	0.21351387
45	0x3bc26deb	0.0059335134
46	0x3c40b645	0.011762206
47	0xbe6600ea	-0.22461286
48	0x3c13cc1b	0.0090208305
49	0x3d2cbbfb	0.04217146
50	0xbdcafb1a	-0.09911175
51	0xbbf6e56d	-0.007534674
52	0xbdbdac84	-0.0926142
53	0xbd695bf3	-0.056972455
54	0x3ca7ae30	0.020468801
55	0xbd77f085	-0.06053211
56	0x3dbbecb3	0.09176006
57	0xbd0378ed	-0.032097746
58	0x3d04f710	0.03246218
59	0xbee9ee92	-0.45689827
60	0x3dde484a	0.10853632
61	0x3e63462b	0.22194736
62	0x3e098e8f	0.13433288
63	0xbd2dde66	-0.042448424
64	0x3c1fd825	0.009756123
65	0x3cb00e3d	0.021491164
66	0xbdb73e82	-0.08947469
67	0xbc1d01c2	-0.009582939
68	0xbd851715	-0.06498543
69	0xbd9fccfb	-0.07802769
70	0x3e104ced	0.14091845
71	0x3d46fbb1	0.048579875
72	0xbc305997	-0.010763547
73	0x3d984029	0.074341126
74	0x3da37bab	0.07982572
75	0xbbd5133f	-0.0065025385
76	0xbd3cf5e8	-0.046132952
77	0x3d24c4f0	0.040226877
78	0xbd8d02d7	-0.06885307
79	0xbe1af26c	-0.15131539
80	0x3d8f640e	0.07001506
81	0x3dd19ee7	0.10235386
82	0xbd0adec3	-0.03390385
83	0x3d89fcf9	0.06737704
84	0x3d6abbd4	0.057308033
85	0x3d18665c	0.037206993
86	0x3df08986	0.117449805
87	0x3d7a4d4c	0.061108872
88	0x3e070dc1	0.1318884
89	0x3e817406	0.2528383
90	0x3e4213cf	0.18952869
91	0x3dde20ac	0.108460754
92	0x3e432b1b	0.19059412
93	0x3de0537a	0.10953422
94	0x3d68d0f9	0.056839917
95	0x3e0cb950	0.13742566
96	0x3d4a8514	0.04944332
97	0xbd3de319	-0.046359155
98	0xbdf3c971	-0.11903656
99	0xbd845d27	-0.0646308
100	0xbda245b9	-0.07923455
101	0xbdc66a1b	-0.09688207
102	0x3e3d9b17	0.18516193
103	0xbc8f4037	-0.017486675
104	0xbd4b7c74	-0.049679235
105	0xbe624a50	-0.2209866
106	0xbcc531ca	-0.024071593
107	0xbd04389f	-0.03228056
108	0x3e476f0d	0.19475956
109	0x3e26fbd6	0.16307005
110	0xbda19b70	-0.078909755
111	0x3e1edd5f	0.15514134
112	0x3e12569c	0.14290851
113	0xbe33eef9	-0.1757163
114	0xbd3d90e8	-0.04628077
115	0x3d8065f8	0.06269449
116	0xb9ce891d	-0.0003939354
117	0xbc7f2cb3	-0.015574622
118	0x3dda08be	0.10646199
119	0xbcc3b06e	-0.02388784
120	0x3d85ba54	0.0652968
121	0xbb84b2eb	-0.004049649
122	0xbcdfbc07	-0.027311338
123	0x3ec4243c	0.38308895
124	0x3d99fccb	0.075189196
125	0xbcde79b5	-0.027157644
126	0xbd5fb733	-0.05461807
127	0x3d993891	0.07481492
128	0xbca900a2	-0.020630185
129	0x3e0d5670	0.13802505
130	0xbc2efbab	-0.0106801195
131	0x3dbec376	0.09314625
132	0x3e1b0fbb	0.1514272
133	0x3e1658b1	0.1468227
134	0x3e5340f6	0.2063025
135	0x3cd1d4eb	0.025614223
136	0xbcdeb6ee	-0.027186837
137	0x3d3d7f71	0.046264116
138	0x3d8d6d9e	0.069056734
139	0x3e86b6f7	0.26311466
140	0x3d32cd8e	0.043653063
141	0x3d80fe6a	0.06298526
142	0xbd343033	-0.04399128
143	0x3def8918	0.116960704
144	0xbc4d00ef	-0.01251243
145	0x3d673657	0.056448307
146	0xbdd2e7b6	-0.102981016
147	0x3e0ba696	0.13637766
148	0xbc581fcc	-0.013191175
149	0x3d95ca45	0.073139705
150	0x3c0e2111	0.008674876
151	0x3df6891a	0.12037869
152	0x3e4fe7e6	0.20303306
153	0x3ea3e947	0.32013914
154	0x3d7d8b78	0.061900586
155	0x3dd54f14	0.104154736
156	0xbe54c14b	-0.2077686
157	0x3e0519f1	0.12998177
158	0x3dd082a4	0.10181168
159	0xbcdd6984	-0.027027853
160	0x3d39d929	0.045373116
161	0x3d511116	0.051041685
162	0xbe124fbd	-0.1428823
163	0x3de17a65	0.11009673
164	0xbd5d9c50	-0.05410415
165	0x3d42618e	0.047456317
166	0xbd2d470a	-0.042304076
167	0xbda844b6	-0.082162306
168	0x3d1fb1dd	0.038987983
169	0x3dfc8398	0.12329787
170	0x3dcc6d22	0.09981753
171	0xbd5b0a8a	-0.053476848
172	0x3d9f0e1b	0.07766362
173	0xbdb30202	-0.08740617
174	0x3d949a42	0.07255985
175	0xbdb5a992	-0.088702336
176	0x3dbd1a4e	0.09233533
177	0x3c792ac0	0.015207946
178	0xbda9949f	-0.082803
179	0x3d51cf58	0.05122313
180	0xbdaae014	-0.08343521
181	0xbd980d7c	-0.07424447
182	0xbbb49520	-0.005510941
183	0x3dfed06b	0.12442096
184	0xbc480131	-0.012207315
185	0x3c4943b7	0.012284211
186	0xbd22f2e1	-0.03978241
187	0xbeb15b76	-0.34640092
188	0xbd3f1225	-0.046648163
189	0x3d9aa1d3	0.07550397
190	0xbd299f41	-0.041411642
191	0xbcb7ddd3	-0.022444641
192	0x3d07a57d	0.033116806
193	0x3d43e604	0.047826782
194	0x3da4d1ed	0.08047853
195	0xbd2028c5	-0.03910138
196	0xbd85b050	-0.065277696
197	0xbaa19793	-0.0012328498
198	0x3dbb8e85	0.09158043
199	0x3d6c1527	0.05763736
200	0x3d7bc61d	0.061468232
201	0x3de7e5bb	0.113231145
202	0x3cb81654	0.022471584
203	0x3da56674	0.08076182
204	0xbca3ea00	-0.02000904
205	0xbd1c2fa5	-0.038131375
206	0xbdbeab88	-0.09310061
207	0xbda3034b	-0.079596125
208	0xbd0b3723	-0.03398813
209	0xbda79959	-0.081835456
210	0x3d5428ed	0.051796842
211	0xbd8cbb53	-0.06871667
212	0xbd4167a2	-0.047217973
213	0x3d888868	0.066666424
214	0x3c7827ca	0.015146205
215	0x3dd4b413	0.10385909
216	0x3d87e509	0.06635482
217	0x3c298fdd	0.010349241
218	0x3e4b216f	0.19836973
219	0xbdf85679	-0.12125868
220	0x3e2822a1	0.1641946
221	0x3d31182b	0.04323594
222	0x3e525ca8	0.20543158
223	0x3dcc8192	0.09985651
224	0xbd5c9096	-0.053848825
225	0x3dc2ed1d	0.09517882
226	0xbdca5bfe	-0.09880827
227	0xbda2cc58	-0.07949132
228	0xbca7fea2	-0.02050716
229	0xbd9e41dc	-0.077274054
230	0x3d878141	0.0661645
231	0x3c782c17	0.015147231
232	0xbcc081aa	-0.023499329
233	0xbe1821fb	-0.14856713
234	0x3d941053	0.07229676
235	0xbb83223f	-0.004001885
236	0x3dba054c	0.090830415
237	0xbc7a4802	-0.015275957
238	0xbe1b47f4	-0.15164167
239	0x3e28fe9b	0.16503374
240	0xbd5d40c5	-0.054016847
241	0xbd5229cd	-0.051309396
242	0xbcbd6e76	-0.023123961
243	0x3d04eeca	0.03245429
244	0x3c8f3f66	0.017486285
245	0xbd1e65c5	-0.038671274
246	0x3dbd8636	0.09254114
247	0xbcef5d8c	-0.029219411
248	0x3e048a77	0.12943445
249	0x3a4a84ed	0.0007725496
250	0xbd1c9701	-0.038229946
251	0x3e099fac	0.13439816
252	0x3d9c12d5	0.076207794
253	0x3ce969c4	0.028492816
254	0xbcf7f704	-0.030269153
255	0xbdb335cc	-0.08750495

fc3.bias f4 [26]
0	0x3d871ee2	0.06597687
1	0xbd08c7e9	-0.033393774
2	0xbacdc157	-0.0015697879
3	0xbce744bc	-0.028231017
4	0x3d9ea838	0.07746929
5	0xbd2be4a3	-0.04196609
6	0xbd9e5628	-0.07731277
7	0x3d11461d	0.035467256
8	0x3d44a073	0.04800458
9	0xbd6fafd9	-0.05851731
10	0xbdc8e37f	-0.098090164
11	0x3d702aa7	0.058634426
12	0x3cdc1eb5	0.026870111
13	0xbd5a3313	-0.053271364
14	0xbce12307	-0.027482523
15	0xb9c23fe2	-0.0003705016
16	0xbd364a7b	-0.044504624
17	0x3d52d79d	0.051475156
18	0x3d96f194	0.07370296
19	0x3d99bba8	0.07506496
20	0x3cab0edc	0.020881109
21	0x3e023235	0.12714465
22	0x3db1fe4f	0.08691084
23	0xbce24368	-0.027620032
24	0x3da5c575	0.080943026
25	0x3d291904	0.041283622
