weights/pose_predictor_epoch50.pth (torch, 35935 bytes, 6 tensors)

fc1.weight f4 [64, 39]
0	0x3e1bcb01	0.15214159
1	0x3d3cf3fd	0.046131123
2	0xbd685160	-0.05671823
3	0x3e33eac0	0.17570019
4	0xbca3d1a8	-0.019997433
5	0xbc56ecd9	-0.013117992
6	0x3e2a073d	0.16604324
7	0x3d4472cb	0.047961038
8	0x3e242ab7	0.1603192
9	0x3e0cdbd8	0.13755739
10	0xbd02e157	-0.031953182
11	0xbdda58f5	-0.106614985
12	0xbd8f09b7	-0.06984275
13	0x3d982ee6	0.0743082
14	0x3ad31b3c	0.0016106139
15	0x3db5c4ba	0.08875413
16	0x3b892e5c	0.0041864347
17	0xbdabbc33	-0.083855055
18	0x3e586d1a	0.21135369
19	0x3c77586a	0.015096763
20	0x3d6bffeb	0.05761711
21	0xbd3ac880	-0.045601368
22	0x3e27454f	0.16335033
23	0xbc802e10	-0.015646964
24	0x3e410c74	0.18852407
25	0xbe07d023	-0.13262992
26	0x3d210790	0.039313853
27	0x3db9ca12	0.09071745
28	0x3cf6e4e1	0.030138435
29	0x3dea72ba	0.114476636
30	0x3e05ebc5	0.1307822
31	0x3d9fe4e9	0.07807333
32	0x3da4501e	0.08023094
33	0x3a1f9899	0.00060881075
34	0xbe269ed7	-0.1627153
35	0xbce105c1	-0.027468564
36	0x3dd63e64	0.10461119
37	0x3d839b76	0.06426136
38	0x3e38e399	0.18055572
39	0x3e2006dd	0.15627618
40	0x3e9817ae	0.29705566
41	0xbd4ce86d	-0.050026346
42	0x3c318da5	0.010836993
43	0x3e85fa77	0.26167652
44	0xbca28cc4	-0.019842513
45	0x3e5e4134	0.2170456
46	0x3e266e9e	0.16253135
47	0xbe0cd1a3	-0.13751845
48	0x3dbe31e1	0.092868574
49	0x3e4a30f0	0.1974523
50	0x3a837d21	0.0010031798
51	0x3c035424	0.008015666
52	0x3e15c844	0.14627177
53	0xbe19c219	-0.15015449
54	0x3d5de731	0.05417556
55	0x3dee6d95	0.11641995
56	0x3dbe42d4	0.0929009
57	0x3d119553	0.035542797
58	0x3d4b1c51	0.04958755
59	0xbdf736d3	-0.12071004
60	0xbd3af99a	-0.045648195
61	0x3e0e7a72	0.13913897
62	0xbcefec3a	-0.029287446
63	0xbd154cfa	-0.036450364
64	0x3df6f5db	0.12058612
65	0xbd4d22f3	-0.05008216
66	0xbd1287b9	-0.035773966
67	0x3d9e0aff	0.07716941
68	0xbd5a9c89	-0.05337194
69	0x3d61dcc0	0.055142164
70	0xbdbf7205	-0.093479194
71	0x3cea40ae	0.028595295
72	0xbd68f4d0	-0.056874096
73	0x3dcd7a92	0.10033144
74	0x3e19be75	0.1501406
75	0x3e0b3e21	0.13597919
76	0xbe027a37	-0.12741934
77	0xbdb3629e	-0.08759044
78	0xbd4d0f67	-0.050063517
79	0xbe401c7e	-0.18760869
80	0xbd8bae34	-0.06820336
81	0xbe2ad728	-0.16683638
82	0xbe133c44	-0.14378458
83	0xbbadc4fc	-0.0053030234
84	0x3bb88e34	0.0056321863
85	0xbe4860d4	-0.19568187
86	0xbd66aeaf	-0.056318935
87	0x3d9a7585	0.07541946
88	0x3dc849a2	0.09779669
89	0x3c984eae	0.018592205
90	0xbce6dc96	-0.028181355
91	0xbde28ce6	-0.110620305
92	0x3d22666e	0.039648466
93	0x3e05cf4c	0.13067359
94	0x3dffe78a	0.124953344
95	0xbd23e943	-0.040017378
96	0x3e230cbb	0.15922825
97	0x3e3fed99	0.1874298
98	0x3df22d59	0.11825056
99	0xbd574c59	-0.052563045
100	0x3d914816	0.070938274
101	0xbd0cc7c8	-0.034370214
102	0x3b821ac3	0.0039704754
103	0x3e65cc96	0.22441325
104	0x3dbeedaf	0.09322678
105	0xbd11815d	-0.03552376
106	0x3e001b8b	0.12510507
107	0x3c6619be	0.014044223
108	0x3c1c6ed0	0.009547904
109	0xbd89c570	-0.06727111
110	0x3e11d637	0.14241873
111	0x3cd8e636	0.02647696
112	0xbe23b342	-0.1598635
113	0x3c837430	0.016046613
114	0xbd8d62ce	-0.06903611
115	0xbcaaaffb	-0.020835867
116	0xbd7cbf0a	-0.061705627
117	0x3d445722	0.04793466
118	0xbd716c10	-0.058940947
119	0xbd0f24f9	-0.03494737
120	0xbdd3df89	-0.1034537
121	0xbb1c9c6d	-0.0023896948
122	0x3dc64b8e	0.0968238
123	0xbe1af361	-0.15131904
124	0x3d997d2e	0.07494579
125	0x3e043753	0.1291173
126	0xbdf273c0	-0.11838484
127	0x3d7a3910	0.061089575
128	0xbdcf89ce	-0.10133706
129	0xbd016145	-0.031586904
130	0xbdda3779	-0.10655112
131	0x3d69c29a	0.057070352
132	0x3dc03ef9	0.09387011
133	0xbd52940a	-0.051410712
134	0x3d04e77c	0.032447323
135	0x3df42983	0.1192198
136	0x3e442c2f	0.1915748
137	0xbe0e5d17	-0.13902698
138	0x3d9f1b57	0.077688865
139	0x3d8b6b2d	0.068075515
140	0xbdd86089	-0.105652876
141	0x3dda2807	0.10652166
142	0x3e42c876	0.19021782
143	0x3df3bc20	0.11901116
144	0x3e0336a6	0.12813815
145	0xbde46010	-0.11151135
146	0x3c9a8276	0.018861037
147	0x3d4b0536	0.049565516
148	0x3e3af175	0.18256171
149	0xbc99096e	-0.018681254
150	0x3e2a0b9e	0.16605994
151	0x3c4be0e5	0.012443756
152	0xbe0a8001	-0.13525392
153	0x3df2949a	0.1184475
154	0x3e3541ee	0.17700931
155	0x3e04984a	0.12948719
156	0xbc811117	-0.01575522
157	0xbe1524b9	-0.1456479
158	0xbd9b879e	-0.07594226
159	0x3d9c1136	0.0762047
160	0xbe3f4f77	-0.18682657
161	0xbdbe847c	-0.09302613
162	0x3b16e0b5	0.002302212
163	0xbdb53975	-0.0884885
164	0xbe032cfc	-0.12810129
165	0x3dd07a06	0.10179524
166	0xbe199416	-0.14997897
167	0xbda65e92	-0.081235066
168	0xbd0adb4c	-0.033900544
169	0x3bf5bb5a	0.0074991407
170	0xbdd77607	-0.10520559
171	0xbcb4cd90	-0.022070676
172	0x3ce24e94	0.02762536
173	0xbe3db08b	-0.18524377
174	0xbdad5ee0	-0.084653616
175	0xbd066134	-0.032807544
176	0x3da4c942	0.080461994
177	0xbc9143a2	-0.017732445
178	0xbe1ce6ef	-0.15322469
179	0xbd51929c	-0.05116521
180	0x3d9034e0	0.07041335
181	0xbe3c00ce	-0.18359682
182	0x3d32f0c0	0.04368663
183	0xbd8118b5	-0.063035406
184	0xbe20d7b9	-0.15707292
185	0xbe1f457b	-0.15553848
186	0x3e154c1c	0.14579815
187	0x3d85a408	0.06525427
188	0xbe1aff22	-0.15136388
189	0xbe0d1847	-0.13778792
190	0xbd92971f	-0.0715773
191	0xbdf32966	-0.118731305
192	0x3d1ba6ef	0.038000997
193	0xbe339300	-0.17536545
194	0xbc54ff83	-0.013000372
195	0xbe4e564e	-0.2015011
196	0xbc80efe8	-0.015739396
197	0x3dc03143	0.09384396
198	0x3cde2b18	0.027120158
199	0xbe2ea624	-0.17055565
200	0x3da0280d	0.07820139
201	0x3da10cdd	0.078637816
202	0xbdd0213c	-0.10162589
203	0x3ce294b2	0.027658794
204	0xbd8c7960	-0.06859088
205	0x3cf10d9e	0.029425438
206	0x3ba6569f	0.005076244
207	0xbe20bfd8	-0.15698183
208	0xbc6b75c9	-0.014371344
209	0xbe281e33	-0.1641777
210	0x3d7af809	0.0612717
211	0xbbd3bee2	-0.006461964
212	0x3d5dae84	0.05412151
213	0xbe4b65a3	-0.1986299
214	0xbe3ec4b3	-0.18629722
215	0xbe3933ab	-0.18086116
216	0xbdc20d5c	-0.09475204
217	0xbe007824	-0.1254583
218	0x3da273b1	0.07932223
219	0xbdc8a29e	-0.09796642
220	0x3d19f9d4	0.03759177
221	0x3da1dadd	0.07903073
222	0x3d827424	0.06369808
223	0xbe12bb38	-0.14329231
224	0x3c92e591	0.017931731
225	0xbce1f993	-0.027584827
226	0x3dccddc4	0.10003236
227	0xbe46a6f5	-0.19399627
228	0xbe2b0f2c	-0.16705006
229	0xbd89435b	-0.067023
230	0xbc918bbf	-0.017766831
231	0xbd81d0f6	-0.06338684
232	0xbd0b3a6b	-0.03399126
233	0xbda2bd81	-0.07946301
234	0xbe226566	-0.15858993
235	0x3cef4537	0.029207809
236	0x3dc5ca9c	0.09657785
237	0x3df77da6	0.120845124
238	0x3e6475ee	0.22310612
239	0xbc82cea4	-0.015967675
240	0xbc536249	-0.012901851
241	0x3e4da2f0	0.20081687
242	0x3d16c9a0	0.03681338
243	0xbe180d7b	-0.14848892
244	0xba436764	-0.0007454066
245	0xbe0ecd4c	-0.13945502
246	0xbe09a794	-0.13442832
247	0xbdacd062	-0.08438183
248	0x3d054c15	0.03254326
249	0xbd4a2dab	-0.04935996
250	0xbe2a2bb3	-0.16618232
251	0xbd2fe71c	-0.042945012
252	0xbe15732d	-0.14594717
253	0x3d83bb2a	0.06432183
254	0x3d8c923b	0.06863829
255	0xbe415771	-0.18881012

fc1.bias f4 [64]
0	0xbdd97996	-0.10618894
1	0xbcc758ea	-0.02433439
2	0xbd8af1e4	-0.06784418
3	0x3dd689d9	0.10475511
4	0xbc82c114	-0.015961207
5	0xbd35a1c5	-0.04434373
6	0x3d7c9d46	0.061673425
7	0x3d661267	0.056169894
8	0xbe352062	-0.17688134
9	0x3b471204	0.0030375728
10	0xbdf8d899	-0.12150688
11	0x3dfadd7a	0.122492746
12	0x3ce7ba02	0.028286938
13	0x3e0f0502	0.13966754
14	0x3cc32ba6	0.023824524
15	0x3bcb8af1	0.0062116315
16	0xbda388f0	-0.07985103
17	0xbe131694	-0.14364082
18	0xbdfc03d1	-0.123054154
19	0xbc67a30b	-0.014137994
20	0x3c937b22	0.01800305
21	0x3db0be01	0.0862999
22	0x3da5d947	0.08098083
23	0xbbbe6e6c	-0.005811503
24	0xbd784b33	-0.06061859
25	0x3e065f63	0.13122325
26	0xbe1148ff	-0.14188002
27	0xbe14aff6	-0.14520249
28	0x3dae85d1	0.08521617
29	0x3dd3dc9f	0.103448145
30	0x3e0a1f71	0.13488556
31	0x3dcbfd77	0.09960454
32	0x3e330959	0.17484035
33	0x3e327de2	0.17430833
34	0x3ddd9ab1	0.10820521
35	0x3d6dd8fc	0.05806826
36	0xbdd3f135	-0.10348741
37	0xbd81a775	-0.06330768
38	0xbda29d5a	-0.07940169
39	0x3cf0dc9c	0.02940207
40	0xbd993644	-0.074810535
41	0xbd71970a	-0.058981933
42	0x3dc3eee0	0.09567046
43	0x3d6450b2	0.05574102
44	0xbd5c0f1a	-0.05372534
45	0x3daeee7b	0.0854158
46	0x3db9c018	0.09069842
47	0x3d8d354c	0.06894931
48	0xbdd67ea9	-0.10473377
49	0x3d514bb0	0.05109757
50	0xbe2f7365	-0.17133863
51	0xbdd190f4	-0.10232726
52	0xbe182219	-0.14856757
53	0xbde29c79	-0.11065001
54	0x3dd6a20d	0.104801275
55	0xbdd4b052	-0.10385193
56	0xbdcaa9d2	-0.09895672
57	0x3e2560e0	0.16150236
58	0xbb73a918	-0.0037179645
59	0x3dbfbd8b	0.09362324
60	0xbe0e77bf	-0.13912867
61	0xbd920071	-0.071289904
62	0xbd0840fe	-0.033265106
63	0xbdd2b1b7	-0.10287803

fc2.weight f4 [64, 64]
0	0xbd93519e	-0.071933016
1	0xbca83fd6	-0.020538252
2	0xbb721993	-0.0036941513
3	0x3d670ca1	0.05640853
4	0xbc402e9a	-0.011729861
5	0xbd132a07	-0.035928752
6	0xbd18c260	-0.037294745
7	0xbd257ae6	-0.04040041
8	0xbde62a81	-0.11238576
9	0xbdf772d1	-0.12082446
10	0x393ea000	0.00018179417
11	0xbc0ed920	-0.008718759
12	0xbe1cf56c	-0.15327996
13	0x3d200a52	0.039072342
14	0xbd56b857	-0.052421894
15	0x3d6ae683	0.05734874
16	0xbd9b7400	-0.075904846
17	0x3d41f750	0.047354996
18	0xbcecc3bd	-0.028901929
19	0xbdde3246	-0.10849433
20	0xbd8d9946	-0.06914
21	0xbd7ba6e1	-0.061438445
22	0xbe21a8c0	-0.1578703
23	0x3b0c9b0c	0.002145472
24	0xbd75b81c	-0.059990034
25	0xbb044036	-0.0020179874
26	0xbd99cc55	-0.07509676
27	0x3c990777	0.018680317
28	0xbd98ae03	-0.07455065
29	0x3d95a218	0.073063076
30	0x3ce71477	0.028208
31	0xbe2a9e5a	-0.16661969
32	0x3d296348	0.041354448
33	0x3d4305f8	0.047613114
34	0xbe2e94f9	-0.17049016
35	0xbdc16d2f	-0.09444653
36	0xbdc16783	-0.094435714
37	0xbe0e1d10	-0.13878274
38	0xbd2bef81	-0.041976456
39	0xbd3d443a	-0.046207644
40	0xbe06dae4	-0.13169438
41	0x3bafe560	0.00536792
42	0xbe161632	-0.14656904
43	0xbd4739ab	-0.04863898
44	0xbe022bb5	-0.12711985
45	0xbd167ed7	-0.036742058
46	0xbcabeafa	-0.020986069
47	0x3cf9338d	0.03042009
48	0x3c1bb2d6	0.009503087
49	0xbdac9d81	-0.08428479
50	0xbbc0dc77	-0.0058856565
51	0x3daf9f72	0.08575334
52	0xbdd4931d	-0.10379622
53	0x3c749970	0.0149291605
54	0xbdff3ef3	-0.124631785
55	0xbd9dc430	-0.077034354
56	0xbe1d547d	-0.15364261
57	0x3c90d5f6	0.01768015
58	0xbda3fc34	-0.08007088
59	0x3d81333b	0.063085996
60	0xbd9760ee	-0.07391535
61	0xbd125c4b	-0.03573255
62	0xbe1c5fb4	-0.15270883
63	0x3d2b9890	0.04189354
64	0x3cb4782b	0.022029957
65	0x3da5d058	0.08096379
66	0xbe155f1e	-0.14587066
67	0xbc2e506f	-0.010639294
68	0xbde7e0c2	-0.11322166
69	0x3daa3885	0.083115615
70	0x3dd698b8	0.104783475
71	0x3cc8ff1d	0.02453571
72	0xbcbf8b2b	-0.02338179
73	0x3d3b1180	0.045670986
74	0xbdec72ee	-0.115453586
75	0x3db832b8	0.08994049
76	0x3d9594ee	0.07303797
77	0xbd907268	-0.07053071
78	0xbe2c3859	-0.1681837
79	0xbc8828c4	-0.016621001
80	0xbd1f4203	-0.038881313
81	0xbd417719	-0.04723272
82	0xbd8ab610	-0.06773007
83	0x3d56dfd3	0.05245955
84	0x3cd21b27	0.025647713
85	0xbdd873e9	-0.10568983
86	0x3d348847	0.044075277
87	0xbd3e16c6	-0.046408437
88	0xbbe6aacd	-0.007039404
89	0xbaa2ab70	-0.0012410711
90	0xbcb83b63	-0.022489255
91	0x3d8e4a59	0.069477744
92	0xbd88d5eb	-0.066814266
93	0x3d9baf52	0.07601799
94	0xbd85f17d	-0.06540201
95	0x3d80409a	0.06262322
96	0xbdff6285	-0.12469963
97	0xbcfc3309	-0.030786054
98	0x3e128234	0.14307481
99	0xbc9a2325	-0.018815586
100	0xbe1e49ea	-0.15457883
101	0x3c9e0e0c	0.019293807
102	0x3d3806a9	0.044928227
103	0xbda03a1e	-0.07823585
104	0x3d6d9427	0.058002617
105	0x3da902b6	0.0825247
106	0xbc96ed7a	-0.018423785
107	0xbdb802f3	-0.089849375
108	0xbd8ad22b	-0.067783676
109	0xbdd1a259	-0.102360435
110	0x3d68cb3f	0.056834456
111	0x3c02ab20	0.00797537
112	0xbb17b060	-0.00231459
113	0xbd9f6e06	-0.07784657
114	0x3d9c9be9	0.07646925
115	0x3d2a90c4	0.041641966
116	0x3c8c160f	0.017100362
117	0xbca4d908	-0.02012302
118	0xbd008415	-0.031375963
119	0xbe219872	-0.1578081
120	0x3cdeeb51	0.027211817
121	0xbe2025a2	-0.15639356
122	0xbdfe4206	-0.12414937
123	0xbc97acf1	-0.018515082
124	0x3bf899e0	0.0075867027
125	0x3d6896c8	0.05678442
126	0x3d952a1f	0.072834246
127	0xbdc2d585	-0.09513382
128	0xbd45ef38	-0.04832384
129	0x3c990ea1	0.018683733
130	0xbdd10a41	-0.10207034
131	0xbce7eb97	-0.02831058
132	0xbcb1f690	-0.021724015
133	0x3d95be8a	0.07311733
134	0xbc769473	-0.0150500415
135	0xbe0f4f93	-0.13995199
136	0xbe047022	-0.129334
137	0xbdc1de3a	-0.094662145
138	0x3d66fe6c	0.05639498
139	0x3cfcf991	0.030880721
140	0x3bca3054	0.006170312
141	0xbe06a065	-0.13147123
142	0x3bbcc163	0.005760358
143	0xbd3ee4f6	-0.046605073
144	0xbd8739c0	-0.06602812
145	0xbdf2fc35	-0.11864511
146	0xbd56ad8e	-0.05241161
147	0xbd3263d4	-0.043552235
148	0x3d6c3f08	0.0576773
149	0xbde11a3c	-0.10991332
150	0x3c3f91d3	0.011692482
151	0x3ce2b8d8	0.027676031
152	0x3d708388	0.058719188
153	0xbc31e1bd	-0.010857043
154	0xbc845457	-0.016153498
155	0x3d6e3038	0.058151454
156	0x3ca8dec2	0.020614032
157	0x3cffdf1d	0.031234318
158	0xbe29aac1	-0.16569044
159	0xbd256ada	-0.040385105
160	0xbe00da10	-0.12583184
161	0x3b7a65ff	0.0038207767
162	0x3d9d1563	0.07670095
163	0xbe11a393	-0.14222555
164	0xbe0bb408	-0.13642895
165	0xbdb64ff5	-0.08901969
166	0x3d6befae	0.057601623
167	0xbdeb594e	-0.11491643
168	0x3c114b5b	0.008868064
169	0x3d9c523e	0.07632874
170	0xbc078909	-0.008272418
171	0xbe1d0421	-0.15333606
172	0x3d4ecfe8	0.050491244
173	0xbd77767f	-0.06041574
174	0x3d01455a	0.03156028
175	0x3de0ca1a	0.10976048
176	0xbad166e3	-0.0015976097
177	0x3d19fe2c	0.037595913
178	0x3dd24fa6	0.10269098
179	0xbdf92306	-0.12164883
180	0x3c4fbb70	0.012678966
181	0x3b9bd0a0	0.0047550946
182	0xbd1587ff	-0.03650665
183	0x3d04e4a8	0.032444626
184	0xbdd916c2	-0.10600044
185	0xbdf8118c	-0.12112722
186	0xbd642e28	-0.05570808
187	0x3da38012	0.07983412
188	0x3d42d138	0.047562808
189	0x3d42f558	0.04759726
190	0x3d0170ec	0.03160183
191	0xbdba68f0	-0.091020465
192	0x3deab16a	0.1145962
193	0xbe217e27	-0.1577078
194	0x3c482385	0.0122155
195	0xbd2bae22	-0.041914113
196	0x3d473609	0.048635516
197	0x3dfdf23f	0.123997204
198	0x3c5484b3	0.012971091
199	0x3df1c912	0.11805929
200	0x3bf3d2db	0.0074409074
201	0xbd61ded2	-0.05514414
202	0xbdb65062	-0.089020506
203	0x3e1db3a2	0.15400556
204	0x3e89cdf3	0.2691494
205	0x3dd953e9	0.10611708
206	0x3ddcb03b	0.10775801
207	0xbd13663c	-0.03598617
208	0xbe0aafeb	-0.1354367
209	0xbc775770	-0.01509653
210	0x3dd2d384	0.1029425
211	0xbddd8ab2	-0.1081747
212	0xbe287d16	-0.16453966
213	0x3d8c3450	0.06845915
214	0x3dc13caa	0.09435399
215	0x3d03b87b	0.032158356
216	0x3d0845aa	0.03326956
217	0x3e387b93	0.1801589
218	0xbd62330d	-0.055224467
219	0x3dd2373a	0.1026444
220	0x3d957cc2	0.07299186
221	0x3e3bdc8d	0.18345852
222	0x3e2bacf6	0.16765198
223	0x3dc15cfa	0.09441562
224	0xbb020445	-0.001983897
225	0x3e0d0a67	0.137735
226	0xbd7041a1	-0.05865634
227	0x3c8fabc3	0.017537957
228	0xbdf2e422	-0.11859919
229	0x3d83fe83	0.06445029
230	0x3d5e1af8	0.05422494
231	0x3ca7f98c	0.020504735
232	0x3c81ef7d	0.015861267
233	0xbdd1c31c	-0.10242292
234	0xbcfea6dc	-0.031085424
235	0xbd3b0e2c	-0.045667812
236	0x3dc71c3c	0.09722182
237	0x3cbbc2d3	0.022920048
238	0xbe04c53a	-0.12965861
239	0x3d8d7f69	0.06909067
240	0x3e1942ed	0.14966936
241	0xbc05d321	-0.008168013
242	0x3db51f77	0.08843892
243	0x3d83877b	0.06422325
244	0xbd97f150	-0.074190736
245	0x3d2c1ce5	0.042019743
246	0xbd9d90e2	-0.0769365
247	0xbd98d830	-0.074631095
248	0x3d6be16a	0.05758802
249	0xbcbc3bc9	-0.022977727
250	0x3d808481	0.06275273
251	0xbd9c6b10	-0.07637608
252	0x3cb15e08	0.021651283
253	0x3a5a7213	0.00083330384
254	0xbc92b7f0	-0.017909974
255	0x3e4a636a	0.19764486

fc2.bias f4 [64]
0	0xbbdc2994	-0.0067188237
1	0xbd7c6732	-0.061621852
2	0xbe001a57	-0.12510048
3	0xbd66f6d1	-0.056387726
4	0xbde5e561	-0.11225391
5	0x3d81bfe7	0.063354306
6	0x3d3e5cd2	0.04647524
7	0xbdd003c4	-0.10156968
8	0xbd29b39c	-0.041431054
9	0xbd8656b4	-0.06559506
10	0x3c903380	0.017602682
11	0xbd83ce16	-0.06435792
12	0x3d5330a3	0.051560055
13	0xbe095903	-0.13412862
14	0x3cdc1673	0.026866173
15	0xbd8e3196	-0.069430515
16	0xbdac8fbb	-0.08425852
17	0xbde83ecf	-0.11340105
18	0xbe0e9d76	-0.13927254
19	0x3d203425	0.03911223
20	0xbdd9dfa2	-0.10638358
21	0xbd92e3d4	-0.07172361
22	0xbd581b28	-0.052760273
23	0x3d819664	0.06327513
24	0xbdd657a3	-0.10465934
25	0xbddca415	-0.10773484
26	0xbd84ed4d	-0.06490574
27	0xbd1e8ad1	-0.038706604
28	0x3c20b05a	0.0098076705
29	0x3d911ff8	0.07086176
30	0xbb04d85c	-0.0020270562
31	0x3cbeacbc	0.023275726
32	0x3d43f81b	0.047844034
33	0x3cfb96b1	0.030711504
34	0xbdea3af3	-0.11437025
35	0xbdb66e36	-0.0890774
36	0xbe23c304	-0.15992361
37	0xbd540355	-0.05176099
38	0x3cd91356	0.026498478
39	0xbdfacad0	-0.12245715
40	0xbd585c8d	-0.05282264
41	0x3de4d88f	0.11174118
42	0xbba91ee0	-0.0051611513
43	0xbd8488f4	-0.06471434
44	0xbd53ff70	-0.051757276
45	0x3d1ab66d	0.03777163
46	0x3dfa46ef	0.12220561
47	0x3de79cf1	0.11309231
48	0xbe1dabdd	-0.15397592
49	0x3d98cd54	0.07461038
50	0x3e084e45	0.13311107
51	0x3d98a1d9	0.07452745
52	0x3c768eb1	0.015048669
53	0x3ac362a9	0.0014906722
54	0x3c768a43	0.015047613
55	0x3d552f4f	0.05204707
56	0x3c4bf909	0.012449511
57	0xbd1f4981	-0.03888846
58	0xbc75a87e	-0.014993785
59	0x3d3ad70a	0.045615233
60	0x3d913671	0.07090462
61	0xbd5679d5	-0.05236228
62	0xbd9cf3b1	-0.07663668
63	0x3c31a147	0.010841674

fc3.weight f4 [26, 64]
0	0x3c314794	0.010820288
1	0xbc894cd7	-0.016760273
2	0x3e099cc1	0.13438703
3	0x3db7e6e5	0.089795865
4	0x3e2016c1	0.1563368
5	0x3d89ac92	0.06722368
6	0xbcde4d74	-0.027136542
7	0xbb3d76eb	-0.0028909992
8	0xbd211a38	-0.039331645
9	0x3e3fcc56	0.18730292
10	0x3cc34c13	0.023839986
11	0x3da40981	0.08009625
12	0xbd870e64	-0.06594542
13	0x3d203c23	0.03911985
14	0x3cd6bc7e	0.026212927
15	0xbe002202	-0.12512973
16	0x3b0e5af1	0.0021721686
17	0x3caf8dc6	0.021429908
18	0xbd734f27	-0.059401657
19	0x3dd8e144	0.10589841
20	0x3ddeca42	0.10878421
21	0x3e253445	0.1613322
22	0x3d318d25	0.043347497
23	0xbcac0434	-0.020998098
24	0xbd609099	-0.0548254
25	0xbd520543	-0.05127455
26	0x3d0a3fa3	0.033752095
27	0xbcffec68	-0.031240657
28	0x3e3fdc5c	0.18736404
29	0xbcbb94d0	-0.022898108
30	0x3d8c849d	0.068612315
31	0x3d18891c	0.037240133
32	0xbb7bef67	-0.0038442255
33	0xbe065f8f	-0.1312239
34	0x3c8a1304	0.01685477
35	0x3dbdbefd	0.09264944
36	0x3e030d09	0.12797941
37	0x3ddad58a	0.106852606
38	0xbd0a82d1	-0.033816162
39	0x3c63c7f7	0.013902656
40	0x3ceb19d8	0.028698847
41	0x3bf41edb	0.0074499673
42	0x3de2faa0	0.11082959
43	0xbdd5782e	-0.10423313
44	0xbb29abf9	-0.0025889857
45	0x3dbc1eff	0.091855995
46	0x3da9abb1	0.08284701
47	0x3da6083c	0.08107039
48	0x3dac8dff	0.08425521
49	0xbd553394	-0.05205114
50	0x3d0abe9e	0.033873193
51	0x3d01c8cf	0.031685647
52	0xbd80bc31	-0.06285895
53	0x3c245a89	0.010031351
54	0xbdc28f8c	-0.09500036
55	0x3e1b58af	0.15170549
56	0x3d93abc9	0.072105
57	0x3e0a081d	0.13479657
58	0x3cda2b06	0.026631843
59	0xbcfa3ea8	-0.030547455
60	0x3d9f8179	0.07788367
61	0xbb88e5a6	-0.004177767
62	0x3e0aa89a	0.13540879
63	0x3d4a8082	0.04943896
64	0x3da83ad8	0.082143486
65	0x3da6d997	0.08146971
66	0x3d0b50d7	0.03401264
67	0xbe562268	-0.20911562
68	0xbd1f744c	-0.03892927
69	0x3cf015af	0.029307215
70	0x3cfa75fd	0.03057384
71	0xbd2f8895	-0.042854864
72	0xbd06ecef	-0.0329408
73	0x3de07b42	0.109610096
74	0x3dff4745	0.124647655
75	0x3b631cc9	0.0034654608
76	0x3d93c77e	0.072157845
77	0x3cfedcba	0.03111111
78	0x3e27acfe	0.16374585
79	0xbccee771	-0.025256844
80	0x3d6a7295	0.05723818
81	0x3cae7fb7	0.021301134
82	0x3d727883	0.05919696
83	0x3e08b2f0	0.13349509
84	0x3d095034	0.033523753
85	0xbca7e25f	-0.020493684
86	0x3dfcae6c	0.12337956
87	0x3d8a987e	0.06767367
88	0xbbbf808f	-0.005844183
89	0x3d5143b1	0.051089946
90	0x3cf4e4f6	0.029894333
91	0xbd846d1d	-0.06466124
92	0xbd9d5a49	-0.07683236
93	0x3c0144a6	0.007889902
94	0x3e230022	0.1591802
95	0x3e1f5274	0.15558797
96	0x3c60c8c7	0.013719744
97	0xbd0012d6	-0.031267963
98	0x3c926929	0.01787241
99	0xbdd9b8f1	-0.10630978
100	0xbd0a1b3b	-0.033717375
101	0x3d2c5bd4	0.04207976
102	0x3e11d38c	0.14240855
103	0x3d586e03	0.05283929
104	0xbd4405c3	-0.047857057
105	0xbd22fe23	-0.039793145
106	0xbce98fc8	-0.028510943
107	0x3df4083f	0.11915635
108	0x3c5720d9	0.01313039
109	0x3dae1e16	0.08501832
110	0x3de1374c	0.10996875
111	0x3da4c1fd	0.08044813
112	0x3b8e81b0	0.004348956
113	0x3cadf9f0	0.021237344
114	0xbd3b1df5	-0.045682866
115	0xbd7c4dba	-0.061597563
116	0x3d65a4de	0.056065433
117	0x3d698abd	0.057017077
118	0x3dbe51ed	0.0929297
119	0x3db21536	0.08695452
120	0xbd8ceaee	-0.06880747
121	0x3da72e4d	0.08163128
122	0xbd2bf074	-0.04197736
123	0xbd5a673b	-0.053321104
124	0x3e27ad59	0.1637472
125	0xbd92f875	-0.07176296
126	0xbd8c7ea2	-0.06860091
127	0x3d8ab20d	0.06772242
128	0x3dc4402a	0.09582551
129	0x3d237818	0.039909452
130	0x3d28a623	0.041174065
131	0x3e5b3cac	0.21409863
132	0x3db75b6d	0.08952985
133	0x3e1caf4c	0.15301245
134	0x3b191719	0.0023359715
135	0x3d387683	0.045034897
136	0x3c6d960f	0.014501109
137	0x3e054602	0.13014987
138	0xbd893bc7	-0.06700855
139	0xbd1db336	-0.038500987
140	0x3e23bbab	0.15989558
141	0x3e08a2ec	0.133434
142	0x3dc97fde	0.09838842
143	0x3e282cf3	0.16423397
144	0xba9717fd	-0.0011527535
145	0x3be5769a	0.007002664
146	0x3de5d622	0.11222483
147	0x3de4aaa8	0.111653626
148	0x3d43a920	0.047768712
149	0x3e14be7b	0.14525788
150	0xbc3fbae9	-0.011702278
151	0xbb77f7ba	-0.0037836866
152	0x3c80713e	0.015678998
153	0xbd6f1548	-0.058369905
154	0xbc1be20c	-0.009514343
155	0xbce9d09c	-0.028541856
156	0x3e0e72a6	0.13910922
157	0x3c5e5aed	0.013571483
158	0xbd05c226	-0.032655858
159	0xbbf8c13f	-0.007591396
160	0x3d9761a9	0.07391674
161	0xbe43cc2d	-0.19120856
162	0x3ce53143	0.027977591
163	0x3e014571	0.12624146
164	0x3c713dbe	0.014724193
165	0xbca7f52b	-0.020502647
166	0xbca42a9f	-0.020039855
167	0xbd01afd5	-0.031661827
168	0xbc573199	-0.013134384
169	0xbdc8b8f4	-0.09800902
170	0xbd2c1968	-0.042016417
171	0x3d4a279d	0.049354184
172	0x3d9c5de9	0.076350994
173	0x3e177f16	0.14794573
174	0x3d9d4fa5	0.076812066
175	0xbd85d356	-0.0653445
176	0xbcf15e8d	-0.02946403
177	0x3d8d30bc	0.06894061
178	0x3d4e214e	0.05032473
179	0x3d360ed6	0.044447742
180	0x3dec94fd	0.11551855
181	0x3d740937	0.0595791
182	0xbdb6f3c3	-0.089332126
183	0x3d792735	0.060828406
184	0xbd86db94	-0.0658485
185	0x3dd618c1	0.1045394
186	0x3d83d8da	0.064378455
187	0x3d5c5b22	0.05379785
188	0x3e1eabf0	0.15495276
189	0x3d25f36f	0.04051536
190	0x3b727bd7	0.0037000084
191	0xbc4a7250	-0.012356356
192	0x3d89df55	0.0673205
193	0x3df5f046	0.12008719
194	0x3da6b9aa	0.08140881
195	0xbe4cf1ca	-0.2001411
196	0xbc113f8b	-0.0088652475
197	0xbd4706b2	-0.04859037
198	0xbd962943	-0.07332089
199	0xbded2c57	-0.11580723
200	0xbc007a07	-0.007841594
201	0x3d9fc6aa	0.07801564
202	0x3e3648ee	0.17801258
203	0x3d825f53	0.06365838
204	0x3d11529b	0.03547917
205	0xbd17d28e	-0.037066035
206	0xbd998057	-0.07495182
207	0xbc182d16	-0.009288093
208	0x3e2a871a	0.166531
209	0x3e04aa71	0.12955643
210	0xbd8e8dd2	-0.06960644
211	0x3dd2a4ed	0.10285363
212	0x3d8b25a8	0.06794292
213	0x3d298a12	0.04139144
214	0x3dac59ec	0.08415589
215	0x3e12f9be	0.14353082
216	0x3d120943	0.035653364
217	0xbd238cd8	-0.03992924
218	0x3db4dbb8	0.088309705
219	0xbcd07019	-0.025444077
220	0x3d624d02	0.05524922
221	0x3d921420	0.07132745
222	0x3ced8939	0.028996097
223	0x3decd343	0.115637325
224	0x3d0a7ba1	0.033809308
225	0xbda33019	-0.07968158
226	0xbd1120af	-0.03543156
227	0xbd96a00c	-0.07354745
228	0xbda13d72	-0.07873048
229	0x3d1d23f0	0.03836435
230	0x3e3ef741	0.18649007
231	0xbc87f049	-0.01659407
232	0x3e027287	0.12739001
233	0x3d31b065	0.043381114
234	0x3d31d464	0.043415442
235	0x3ca48ca3	0.020086592
236	0x3e2b4458	0.1672529
237	0x3c258583	0.010102632
238	0xbd6d18bc	-0.057884917
239	0x3ddd177d	0.10795496
240	0xbd8a47ed	-0.06752
241	0x3ca2f2b0	0.019891113
242	0xbd2fb16c	-0.042893812
243	0xbddbf87c	-0.10740754
244	0xbd5435f0	-0.05180925
245	0x3e121ca6	0.14268741
246	0x3e271aa2	0.16318753
247	0x3cb29dcc	0.021803759
248	0xbce1833c	-0.027528398
249	0x3cf66f61	0.030082406
250	0xbd8fc6a1	-0.07020307
251	0xbca79244	-0.020455487
252	0x3dfd33eb	0.12363418
253	0xbdbf5b68	-0.09343606
254	0x3d86ffa0	0.06591725
255	0x3dc7a32c	0.097479194

fc3.bias f4 [26]
0	0xbd4d10e4	-0.050064936
1	0xbd7137a8	-0.05889097
2	0x3db97b8e	0.09056769
3	0xbc16461d	-0.00917199
4	0x3d1a82f4	0.037722543
5	0xbd10a1f3	-0.035310697
6	0x3dd29032	0.10281409
7	0xbbaa7498	-0.0052018873
8	0x3caf5228	0.02140148
9	0x3d23cbfa	0.03998945
10	0x3def5b96	0.116873905
11	0x3d960b21	0.073263414
12	0xbd1616fc	-0.036643013
13	0x3d17be98	0.037047
14	0x3d75fc8d	0.060055304
15	0x3d2c4b24	0.042063847
16	0xbcc2786c	-0.023739062
17	0xbbf74357	-0.0075458693
18	0x3dbc3d51	0.09191383
19	0x3bb16bed	0.005414477
20	0xbce1aa8b	-0.027547142
21	0xbcb4cf23	-0.022071427
22	0x3cf1dce3	0.029524272
23	0x3d0cee7b	0.03440712
24	0xbd1a2779	-0.0376353
25	0xbc822d13	-0.015890634
